solved_t2_checkpoint_actor.pth (torch, 542751 bytes, 6 tensors)

fc1.weight f4 [400, 33]
00000000: 7eba 133d 77d0 a13b 94d5 a23d c1c6 b1bc
00000010: 6e07 343c 62b5 703b 6d9e ab3d 6098 14bd
00000020: 72a3 553d 2376 a2bc d212 a53a 6617 a7bd
00000030: 5261 21bd 4c05 cdbd 45c7 e63d 103c 9c3d
00000040: 3fa7 70bc c845 eebb 2d45 01bd 468e 323d
00000050: da66 87bd 302e 04be bd2f 79bd 3630 d5bc
00000060: 6c32 78bc c53b 30bd 003c 0abd 00bc abbc
00000070: 20a1 a43c b69f 29bd 0ca9 8ebb b3ae 223d
00000080: 03a3 373f c41e 75be 0036 1bbe 19ae 97bb
00000090: 6377 383d 601e 12be 8ec1 b33d 5542 dabc
000000a0: 7f49 f7bc 2a17 08bd 2874 4abd 09d5 02bd
000000b0: d79d f23b 5179 ba3c c66d 623e a2e4 753d
000000c0: a073 a73d fa63 bdbc a460 6abb 0133 38bd
000000d0: b0bf 01bc af35 4cbc 00e4 483b 3c28 c03b
000000e0: 6904 b13c d302 7d3d 44ae 023b f8a8 efbd
000000f0: 82ef ec3c 67d6 4bbd cc9e 543c 0410 803d
00000100: 98cf ad3b 96e9 8dbc 9c92 89be 9aa5 a3bd
00000110: 32b1 493e ffd4 fd38 96ac d6bc da8b b03d
00000120: ae63 0b3e 3d72 a13c 3974 04be fc10 56bd
00000130: 2b19 34bd b326 85bd 1dc2 a6bc adf8 cc3d
00000140: f1e1 8c3c 04ff 89bd d665 16bd 94da 79bd
00000150: 9142 43bd 2e4c e93c 2c87 d63c dba0 003c
00000160: 0717 0ebd c8cd 1a3d a1f6 9dbc fd41 63bd
00000170: 34b6 1cbd 7b47 2d3c 1e99 adbc 0bba 1c3d
00000180: dabd 67bd 0c60 5bbc 774c 7a3e 2356 37be
00000190: 397f 05be 2af6 363e 8359 8dbc c1bf 8cbd
000001a0: f174 82bc c074 f33d 87a8 86bd 93d0 cd3d
000001b0: 9970 4abd 234e 86bc b74d 97bd 25e1 41bc
000001c0: 926f 233e 4f33 6d3d 109b bebc 8d02 22bd
000001d0: 4159 d6bb 0b6f 7bbc 876f 773c 2c32 783c
000001e0: 0678 abbd 3600 8e3d 6b9b 9c3d 3e9b 66bc
000001f0: f90b 2fbd a8e3 76bd 97a5 ec3c 8ad2 c2bc
00000200: a2ec 963c 8c7a 503d f3e2 37bd 642e b33d
00000210: 8415 7d3d b7df 6e3d 2718 3b3e 2585 32bd
00000220: 48e3 a038 12e1 c63d ebeb 033d 469e 9bbb
00000230: 4040 1a3d 8591 cfbd 3a26 babc 26ec 6fbb
00000240: 487f 58bc 51e4 033c cea9 4fbd c177 03be
00000250: 5d0f 7e3d 2d49 4fbd 91ea 603c 4270 0e3c
00000260: 1e02 1d3d 62be 6a3d 6e18 8b3d 935f 29bc
00000270: 0a44 63bd 0ec7 a1bd 1c77 cf3d 0ec2 3c3d
00000280: b507 f33c 2a94 0bbd df0a f1bc 4c4e 3e3c
00000290: 1f7d fdbe d0ca 033c 9402 a73d 977a 703d
000002a0: d565 35bc ddba d03b 38d6 813c a8c7 d53b
000002b0: 5cb4 9d3c a6dc 913d 6a65 c13d 8de3 103d
000002c0: 1c3b 6abc 59ee 96bc d2b7 063e e9c6 a93d
000002d0: fe9f 2dbe 283c 2d3d 9022 8f3d b8c8 db3b
000002e0: 2ffb 70bb 56fe d9bc 4647 383c f51f bc3c
000002f0: 80ea 573d ec8b af3d c3bc 0ebd 811b 26be
00000300: 8c4d 1b3d c5f5 123e eac6 afbc ef4b 0abd
00000310: 20bd 2c3b 4a49 02bd a802 33be 7119 e0bc
00000320: b5dd 02be b2b2 60bd 5ca1 88bd 48db 3b3e
00000330: 487c 41bd 330d a93c 7e8b 003e 6db0 bfbd
00000340: 29f9 c2bd bdf7 d3bc bf53 b3bc 89e6 d53d
00000350: f4e9 cf3d 19ad 12bd 39e4 e4bc b2cb 103c
00000360: eff1 223d 0785 34bd dbe7 9d3d dff9 163d
00000370: 5b49 0f3e 01c2 9cbd 7c6e 4dbd e14d 883c
00000380: 5d60 93bd 4ce0 433d 11ed c83d 60b4 24bd
00000390: 80ea cbbd f7a4 fcbc 35e2 b53e 251d 853d
000003a0: 9365 133d a3c3 4abe b53b 6e3b 4443 04bd
000003b0: eff9 85bd 1487 a5bd 368e 863c 23d4 43bc
000003c0: f901 ab3c 411c 563d 6a30 97bd 8428 d83c
000003d0: f386 b63c bc00 1ebe e493 c23d 6b8f 1c3a
000003e0: 7c23 21bd 109e 73bb f8c8 f83a 6763 c0bc
000003f0: 922d 8d3d ec46 52bd e5a9 e73c 49f4 cdbb
0.036066525 0.004938181 0.07950893 -0.021701219 0.0109880995 0.0036729206 0.08379827 -0.03627813
0.052157827 -0.019831723 0.001259411 -0.0815876 -0.039399453 -0.10010776 0.112684764 0.076286435
-0.014688312 -0.007271502 -0.03156011 0.043592714 -0.06611414 -0.12908244 -0.060836542 -0.026023965
-0.01514874 -0.04302575 -0.033748627 -0.020963669 0.020096362 -0.041412078 -0.004353648 0.039717387
0.7173311 -0.23937517 -0.15157318 -0.0046289084 0.04503573 -0.142694 0.08777152 -0.026642958
-0.030186413 -0.033225216 -0.04942718 -0.031941447 0.00740407 0.022762926 0.22112188 0.060032494
0.081763506 -0.023118962 -0.0035763169 -0.044970516 -0.007919237 -0.012463971 0.0030653477 0.0058641713
0.021608548 0.06177027 0.0019940296 -0.1170215 0.0289228 -0.049765017 0.012977313 0.06253055
0.005304288 -0.017323297 -0.26869667 -0.0799057 0.19696501 0.00012103654 -0.026205342 0.086204246
0.13612244 0.019707793 -0.1293496 -0.05226229 -0.043969315 -0.06501522 -0.020356232 0.10008369
0.017197581 -0.067380935 -0.036718212 -0.060999468 -0.047670905 0.028478708 0.026187502 0.007850851
-0.03468993 0.037793905 -0.01928264 -0.055482853 -0.0382597 0.010576124 -0.021191176 0.038263362
-0.05657754 -0.013389599 0.24443232 -0.17903952 -0.13036813 0.17867342 -0.017254597 -0.06872512
-0.015924903 0.11887503 -0.06575113 0.10049548 -0.049423788 -0.01639468 -0.0738787 -0.011833464
0.1596053 0.05791026 -0.023267299 -0.039553214 -0.0065414016 -0.015346299 0.015102274 0.015148681
-0.08372502 0.06933634 0.07646831 -0.014075099 -0.042736027 -0.060275704 0.028887553 -0.023782033
0.018423382 0.05089812 -0.04489417 0.08749083 0.061788097 0.05831882 0.18270932 -0.043584008
7.671729e-05 0.097108975 0.03220741 -0.0047490923 0.03765893 -0.101351775 -0.022723306 -0.0036609261
-0.01321394 0.00805004 -0.050699048 -0.12838651 0.06202637 -0.050606895 0.0137278 0.008693757
0.038332097 0.05731047 0.06791769 -0.010337728 -0.05548481 -0.07899295 0.1013014 0.046083502
0.029666761 -0.034076847 -0.029424129 0.011615347 -0.49509522 0.00804396 0.081547886 0.05871066
-0.011071642 0.006369932 0.015849218 0.006524045 0.019251041 0.071221635 0.09443171 0.03537326
-0.014296319 -0.0184242 0.1315606 0.08289892 -0.16955563 0.042293698 0.06989014 0.006707277
-0.003677081 -0.026610535 0.011247462 0.022964457 0.05271387 0.0857161 -0.034847986 -0.1622143
0.03791575 0.14351566 -0.021457154 -0.033763822 0.0026357844 -0.031808175 -0.17481482 -0.027355881
-0.12779887 -0.054857917 -0.06671402 0.18345368 -0.047237664 0.020636177 0.12553212 -0.093598224
-0.0952018 -0.025874967 -0.02189052 0.10444362 0.10152045 -0.03580961 -0.027940856 0.008837627
0.039781507 -0.044072177 0.077102385 0.03685939 0.13992827 -0.07654191 -0.050154194 0.016638698
-0.07196114 0.047821328 0.09810842 -0.04021108 -0.09956837 -0.03084038 0.35524145 0.064996995
0.03598554 -0.19801192 0.0036351506 -0.032290712 -0.06541812 -0.08082405 0.016425233 -0.011952433
0.020874964 0.05227304 -0.07382281 0.026386507 0.022281146 -0.15429968 0.09500864 0.00059722987
-0.03934048 -0.003717307 0.0018980792 -0.023484899 0.068934575 -0.051337168 0.028279254 -0.0062852246

fc1.bias f4 [400]
00000000: 14ee 463e 9a24 f73d 1536 133e b800 2d3e
00000010: c825 b5bd 2717 183e 649d a3bc f209 30be
00000020: c3a8 4abd a0ee afbd a45d 6b3d 12ce 313e
00000030: e642 69be a91d f53c d4e5 2e3e 1f6f 243e
00000040: 2b6c 3d3d 97ba 8c3d 4c09 e53d 0c10 45be
00000050: 0566 733d 6f50 153e 2e6a 32be c5c3 c73c
00000060: fee9 0f3d c5bd 6abd 1f80 debc 8e42 5b3d
00000070: a043 86bc 2670 d4bd dd61 383e 0152 7bbd
00000080: 4f26 05be 494a bebd 013d 413d 03a1 c63d
00000090: b8b2 b9bd 88c0 10bd e8be ddbd 2bb6 12be
000000a0: 11a5 d23d c7cb ee3d cb50 76be cf94 57be
000000b0: 61ad 54bd 8744 4b3d 49e1 dc3d 77c7 113e
000000c0: a658 39be 479d 00be 4292 633d 7ee2 29bd
000000d0: 4ffa 213d fa1f 0fbc 63e4 983c 5d0b 29be
000000e0: 81dc 28be d5a8 773d 835f 76be 0642 8fbd
000000f0: 76b1 4b3d 4b8e eebd 6777 68bb 3d55 5d3d
00000100: 8b4a 7bbc 2ab4 2f3e e030 71be 5a98 c73d
00000110: cfbc 34be f7e2 81bd 6a41 05bd 13b7 173e
00000120: 14e3 373d a3e5 71be dc39 1ebc e4fa 56bd
00000130: 0c8b 35bd 8266 15be 20a2 9dbd 7796 ed3d
00000140: 819f c9bc bd48 c73d a409 0dbe b98b 093e
00000150: b0ee 9a3d 312a 97bd b3e0 adbd cfb7 56bd
00000160: 9fa2 9bbd a544 bebb 1ae4 163d 4060 0abe
00000170: d32f b43c 5451 24be 295c 873d 508f fb3a
00000180: 7503 70be 8f5f 023e 9c79 ddbd 7b42 e4bd
00000190: b083 06be f6d5 7abe d433 e6bd ba28 de3d
000001a0: cff3 bf3b cbfd 00be cf37 a13d 166b 03be
000001b0: ed18 4a3e 2acb cd3d 6c98 0fbd 7e87 a5bd
000001c0: 55f3 3bbe a252 be3c fbe5 90bd bb0d 1d3e
000001d0: d81d 2b3e 8448 2bbe 7d04 713c 7853 ecbd
000001e0: 16b7 32bd 759e 55bd 4fc9 38be 9e95 ff3c
000001f0: 40bc c23d 1d25 413e eb68 74bd f265 4ebe
00000200: fa50 9dbd 29f9 0ebb 4de5 93bd 6085 c3bd
00000210: cc08 61be c78b 813d aca5 0abd a1cd 143d
00000220: d818 5abd 44b9 093e d326 7d3d faa4 d33c
00000230: 2b83 4a3e 87ee e038 7630 4ebe 3acf 14be
00000240: 038a 3b3d 425c 13bd 86e6 1d3e 3dde 3bbe
00000250: a68c ed3d 1b39 f9bd 9736 173d bf83 bf3d
00000260: 41d3 153b f88a 4a3e 470a 8f3d 9bc5 083e
00000270: 3329 33bd 8252 293e a940 143d 565d 033d
00000280: c037 05be 9508 e2bd b59d c73d 1ffd 8d3d
00000290: 0c58 bb3d ff33 44be 6bcd c5bc 38ea 503c
000002a0: e6e2 dd3d e3ad 853d 96ba 19be 7a96 90bb
000002b0: e4ec 2d3d 3381 04bd 12c4 20be 5c7a 84bd
000002c0: 8bf2 893d 6107 0d3d fb83 29bd 19df ab3d
000002d0: f173 ae3d f797 df3c 3af5 0abe a831 c73d
000002e0: 52c0 0fbe d02a 053e c571 3ebe 970e 24bd
000002f0: 1da2 ca3d 52da 9ebc be0a 54bb 5b2a 333e
00000300: eca0 0fbe 3f28 15be a8c3 98bd 9bfa 3ebd
00000310: 085f 5fbe f2aa 913c 76e8 8b3d a88e 7bbd
00000320: 356c 893d 8049 8f3d 6bc5 f23c 5353 67be
00000330: 3df8 c5bc afd3 edbd 1eb0 33be 4763 07be
00000340: 509f aabd ce33 863d a8cb 0dbd 75c8 f6bd
00000350: 6079 97bc 6a50 9f3b d9dc debd e2dc 003e
00000360: 539e b2bd 98b1 013e 57f2 5ebe 124d ce3d
00000370: 65f2 e3bd 9889 1a3d 5b8b 2dbd 7119 e13c
00000380: 9b2f 083e aeb6 5cbd 9958 babd d936 75bd
00000390: c830 fb3d 47e3 00be 9110 1ebe dbf9 abbd
000003a0: a758 0fbe a76d f03b d670 f2bd 905f 303d
000003b0: 9c51 92bd 77a1 52be 82b8 a3bd f20f a23c
000003c0: e063 0b3d df6e 08be 42e9 c2bd 98c0 9ebc
000003d0: 155a 0dbe 5e5b a3ba 6d75 01be 91a1 e4bd
000003e0: 9c47 86bd 18cb df3d 6a90 e5bc 6820 8d3d
000003f0: ec4e d73d a0ac 61bd 4bcf 963c d9cf 6b3c
0.19426757 0.12067528 0.143761 0.16894805 -0.08845097 0.14852582 -0.01997251 -0.17191294
-0.04947735 -0.08590436 0.05746235 0.17363766 -0.22779426 0.02992137 0.1707986 0.16058014
0.046245735 0.06871527 0.11183414 -0.19244403 0.059423465 0.14581464 -0.17423317 0.024385342
0.03513526 -0.057309885 -0.027160702 0.05353027 -0.016389668 -0.10372953 0.18006082 -0.061357502
-0.13002895 -0.092915125 0.04717732 0.09698679 -0.09067291 -0.035339862 -0.10827428 -0.14327304
0.1028539 0.11659961 -0.24054258 -0.2105286 -0.05192316 0.0496259 0.10785157 0.14236246
-0.18100223 -0.12559997 0.055559404 -0.041475765 0.039545354 -0.008735651 0.01866359 -0.16508241
-0.16490366 0.060463745 -0.24059872 -0.06995015 0.049729787 -0.11648234 -0.003547156 0.054036368
-0.015337597 0.17158571 -0.235538 0.09745856 -0.1765015 -0.06342118 -0.032533087 0.14815931
0.044894293 -0.23622756 -0.009657349 -0.05248536 -0.04432206 -0.14589885 -0.076969385 0.116009645
-0.02461219 0.097306706 -0.13773209 0.13432206 0.07565057 -0.07381094 -0.084901236 -0.052421387
-0.07599377 -0.005806523 0.03683863 -0.13513279 0.02199546 -0.16046649 0.06609375 0.0019192491
-0.23438819 0.12731765 -0.10814211 -0.11145493 -0.13136172 -0.24495682 -0.11240354 0.10847612
0.0058579217 -0.12596814 0.07871973 -0.12833819 0.19736071 0.10048516 -0.03505747 -0.08082484
-0.18354543 0.023232762 -0.07075115 0.15337269 0.16710603 -0.16726881 0.014710543 -0.11539358
-0.043631636 -0.05215307 -0.18045543 0.031199273 0.09508562 0.18861814 -0.05967037 -0.20156077
-0.07681461 -0.0021815991 -0.0722147 -0.09546924 -0.21976012 0.063254885 -0.033849403 0.036328916
-0.05324635 0.1344958 0.061804604 0.025835503 0.19776599 0.000107255815 -0.20135674 -0.14532176
0.045785915 -0.035976656 0.15419969 -0.18346496 0.11599092 -0.12169095 0.036917295 0.093513004
0.0022861513 0.19779575 0.06984382 0.1335663 -0.043740463 0.1653538 0.036194477 0.032071434
-0.13009548 -0.11036793 0.09746877 0.06933045 0.09147653 -0.1916046 -0.024145802 0.012751155
0.10834293 0.06527307 -0.15012583 -0.0044124695 0.042462245 -0.032349776 -0.15699795 -0.06468651
0.067357145 0.034430865 -0.041385632 0.08392162 0.08518208 0.027294142 -0.13570109 0.09726268
-0.14038208 0.13004613 -0.18598087 -0.040052976 0.09894202 -0.019391213 -0.0032355036 0.17496626
-0.1402623 -0.14566134 -0.074591935 -0.046625715 -0.21813595 0.017781708 0.06831448 -0.061415344
0.06710092 0.06996441 0.029635152 -0.2259038 -0.02416622 -0.11612641 -0.17547652 -0.13221465
-0.08331168 0.0655285 -0.03461805 -0.12049953 -0.018490493 0.004861881 -0.10881967 0.1258426
-0.08721604 0.12665403 -0.21772133 0.10073294 -0.111302175 0.037728876 -0.042369228 0.027477952
0.1329941 -0.053885154 -0.0909893 -0.05986676 0.12265164 -0.125867 -0.15436007 -0.083972655
-0.13998662 0.0073372903 -0.11837928 0.043059886 -0.07144472 -0.20569406 -0.079941764 0.019782994
0.034030795 -0.13323544 -0.09517147 -0.019378945 -0.13803895 -0.0012463143 -0.1264245 -0.11163629
-0.06556627 0.10927409 -0.028022964 0.068909466 0.105131 -0.05509627 0.018409392 0.014392816

fc2.weight f4 [300, 400]
00000000: d56d 95bc d7c0 e5bd 140d 4a3d 6f9f 98bc
00000010: c533 f8bd 9470 a7bc 350a febd a23e 973d
00000020: fd36 073c a126 7fbc 8de5 653a 1ac9 373d
00000030: 9855 2abc 26fe c43d ef16 c33d 2a58 95bd
00000040: b136 e63c 57c3 4dbe 969e c3bd 66de a23d
00000050: ecc2 6abd c9c2 b23c 5918 6b3d 5565 dd3c
00000060: 23bb 88bb 963b fa3c 9a32 133e b174 10bd
00000070: cb21 3bbe ef95 86bb 8d21 973d fa69 e23c
00000080: 188e 57be b0db 543e 6b5d 03be 8c96 23bd
00000090: 9c2c 99bd 50a6 57bd 1ad6 21bd 052b 97be
000000a0: 505a 59bb 8786 94bd 2118 c9bd f28c 33bd
000000b0: 4f53 8d3d 91f2 163d 7967 413d 98f5 b93c
000000c0: 9ca8 0dbe c515 c7bc 14c5 d33d ef71 d03d
000000d0: e9c3 2bbe 05d6 453d 4c8f 72be ed39 05bd
000000e0: ec2d 283d 4a37 cabd 94cd 9e3d c6cc 18be
000000f0: 360f 40bd a58a 4bbe 1da8 ae3c 7e5b 0dbe
00000100: f83d c83d 3e24 063e ee13 e73b 9515 b0bd
00000110: 538e bd3d ad2e ecbd c028 043d de13 ba3d
00000120: 6bef 8bbd 0255 a1bd 2e64 9abd d2da 75be
00000130: 9b6b 8dbd 0cc1 32be 501a 43bd 1e7f d3bc
00000140: 1bb9 0abe 70e0 c6bd 8357 aebd ca9a 6fbc
00000150: ed2a 013e 0130 12bc 3ba3 8b3c f99e 70be
00000160: 7546 16be af28 d0bd bb34 163d e028 8fbd
00000170: 7874 e63c 5c35 d33c 0f06 e4bc 3143 d23d
00000180: 80db 86bd 5793 a83c cb05 f53c 9050 453d
00000190: ec1c d0bd f87f 95bd 9e69 57be 08d0 ab3d
000001a0: 4997 c5bd b8b9 1f3d bdc4 143e 23d2 b4bd
000001b0: f9af 4fbe 1a10 02bd d241 d13a fee7 10be
000001c0: 2a7c 25bd 0e9d 013d db31 1e3e 9602 bc3d
000001d0: 2425 c5bd 9879 0b3d e0d7 4e3d d968 afbd
000001e0: 7abf a03d a440 f83a 66fc 41be b03c 2bbd
000001f0: d0a0 2d3d 98ee ea3c ee68 b43d 1c21 2bbe
00000200: cdd8 8dbc f845 8a3d 4f6e 0f3e 7b01 603d
00000210: e901 3bbd c04f 83bc 1225 e13c b5f9 6ebd
00000220: 2a2d f73d b866 16be 18a2 a33d ccc7 023e
00000230: 45d3 3c3b 4329 f1bd 468e 2bbd 421d a0bd
00000240: 3fa1 093d 991a e43d 31a7 c63d 82e0 1dbe
00000250: 008a e53c 10bf 473e 71b8 7dbb 201c a5bc
00000260: 2b07 853d 82e6 303d 0ae2 123c 86b5 e8bd
00000270: 8bb3 abbc a754 8bbe 7cbd d7bd cb93 003e
00000280: a132 d43b cc7c 59bd 5f90 063d bca4 8e3d
00000290: 7c09 6d3d e33b 13be 92fa 1abb d7de 863d
000002a0: 43c1 09bc 1bbc d4bd a0a6 0d3d c42b 9b3d
000002b0: bd02 85bc 866b 323d 9958 4c3d fce9 f9bc
000002c0: 8f55 80bb f0b6 bebd de5a 8b3d ef63 7ebd
000002d0: f860 c9bc edf2 433d 4746 acbd 9a31 07be
000002e0: ff44 77bd 5b09 c13c d7a9 99bb 9cc1 f73c
000002f0: 0767 9cbd 97eb 923d 4c2c 5fbd a8f4 653d
00000300: a44b f53d 94ed c73d 15ca a53d 2917 0f3d
00000310: 5def 66be ab63 293d 30ef 4dbd 78b3 2cbc
00000320: 749d cdbd b821 923a 531d e03c b97e 3dbd
00000330: ffb1 d5bd d1ce 4ebd 81ee 5cbe df2e 43bd
00000340: e967 85be be38 c2bb 7670 1cbd 42aa 193e
00000350: 09ad a0be cf2a 153e fe02 1e3e 3771 103d
00000360: d4e3 f13d 3bb8 1bbc 1bfa 11bd a469 773d
00000370: 895a 9dbd fd2b b5bc 1ed7 b43d f092 5b3d
00000380: 523d bb3c 7edb 8abe 116a 313e 67bb 2abd
00000390: 9e10 5f3c 60c6 1f3e 7ee8 98bd 11fa 9e3d
000003a0: c877 193d 9ba8 e1bd 2ee2 493b 2bf5 92bc
000003b0: 8541 18bc 9021 8fbd 4fb1 2f3e d76c 47be
000003c0: 727e 933d e751 b43d 0d17 e53d 90cb 16be
000003d0: 5de5 6ebe efe0 bb3d 9bfa 1aba da4b b4bc
000003e0: dbf4 c7bd 8ca2 89be b6bd a1bd cb98 ea3d
000003f0: be99 39be 5f5d 273e d9a5 1dbe 56ba b83d
-0.018240849 -0.11218422 0.04932888 -0.018630711 -0.12119249 -0.020439424 -0.124042906 0.07384993
0.008252856 -0.015573175 0.00087698625 0.04486952 -0.010396384 0.096187875 0.095258586 -0.072922066
0.02810225 -0.20094047 -0.09551732 0.079525754 -0.0573148 0.021821396 0.057396267 0.027025858
-0.004172699 0.03054599 0.14374772 -0.035267536 -0.1827461 -0.004107229 0.07379446 0.027638424
-0.21050298 0.20786929 -0.12828605 -0.039938495 -0.07479212 -0.052648842 -0.039510824 -0.2952501
-0.0033165403 -0.072522216 -0.09819055 -0.043835588 0.069006555 0.036852423 0.04721782 0.022700116
-0.1383385 -0.024302373 0.10340324 0.10177981 -0.16773953 0.048299808 -0.23687476 -0.032525945
0.04105942 -0.09873827 0.07754055 -0.14921865 -0.046889506 -0.19877107 0.021320397 -0.13804433
0.097774446 0.13099763 0.0070519364 -0.085978664 0.09255662 -0.1153234 0.032265425 0.090858206
-0.06832775 -0.07877542 -0.07538639 -0.24009255 -0.0690529 -0.17456454 -0.047632515 -0.02581745
-0.13547175 -0.09710777 -0.08512785 -0.014624307 0.12614031 -0.008922578 0.017045608 -0.23498143
-0.14675315 -0.1016401 0.03667138 -0.06990218 0.028131709 0.02578228 -0.02783492 0.10266722
-0.06584835 0.02057807 0.029909989 0.048172534 -0.101617664 -0.07299799 -0.21036384 0.08389288
-0.09647996 0.038995475 0.14528175 -0.08829143 -0.20281972 -0.031753637 0.001596505 -0.14150998
-0.040401615 0.03164392 0.15448706 0.09180181 -0.09626225 0.034051508 0.050498843 -0.0856492
0.07849021 0.0018940163 -0.18943939 -0.041805923 0.04238969 0.028678223 0.08809076 -0.16711849
-0.017315293 0.06751627 0.14006923 0.054688912 -0.04565612 -0.016029239 0.027483497 -0.058343608
0.12069161 -0.14687622 0.07989901 0.12771529 0.002881245 -0.11775448 -0.04188373 -0.078180805
0.033601042 0.111378856 0.09699858 -0.15417674 0.028019905 0.19506478 -0.0038714672 -0.020155013
0.06495508 0.04318858 0.008965025 -0.11362748 -0.020959636 -0.27213022 -0.10534188 0.12556379
0.006475762 -0.05309753 0.032852527 0.06965014 0.057870373 -0.14378314 -0.0023647887 0.06585472
-0.008407894 -0.10387441 0.034582734 0.07576707 -0.016236657 0.043559574 0.04988918 -0.03050708
-0.0039164494 -0.09312236 0.06804441 -0.062107023 -0.024582371 0.047839094 -0.08411842 -0.13202515
-0.060368534 0.023564031 -0.004689436 0.030243687 -0.076368384 0.071738414 -0.054485604 0.056141526
0.11977318 0.09762111 0.08095185 0.034934197 -0.22552247 0.041354816 -0.050276935 -0.010540836
-0.100397974 0.0011148965 0.027357733 -0.04626343 -0.10434341 -0.050490204 -0.21575357 -0.04765212
-0.2605584 -0.0059271744 -0.03819319 0.15006354 -0.31382015 0.14567111 0.15430829 0.03526422
0.11811033 -0.009504373 -0.03563891 0.06040348 -0.07683284 -0.022115702 0.08830093 0.053606927
0.022856388 -0.27120584 0.17325617 -0.041682627 0.013614802 0.15603018 -0.07466219 0.0776254
0.037467748 -0.11018487 0.003080498 -0.01793917 -0.009292965 -0.069888234 0.17157482 -0.19475113
0.07201852 0.08804684 0.11186037 -0.1472609 -0.23329683 0.09173762 -0.0005911977 -0.022008825
-0.09763499 -0.26881826 -0.078975126 0.11454924 -0.18125054 0.16344212 -0.15395297 0.09019916

fc2.bias f4 [300]
00000000: 0656 373a 726e 86bd 53c9 0d3d 5a61 6cbd
00000010: e022 9c3b e4a9 8c3b f207 d4bd 7301 cbbc
00000020: 9176 8abc fad3 0f3c ee12 963d 6421 e53c
00000030: 1c24 25bc 6ec0 b4bc 3c91 ce3c 9831 52bd
00000040: 8eb7 e03b 8d5a 1ebd ebec 1cbd bec7 403c
00000050: 62a5 3cbd 623e 83bd feeb 183d bf11 7b3c
00000060: 95a2 e13c 584f 88bd aad8 eabc 80fe adbb
00000070: 4b17 243d f96c fcbb 746d 69bb dcbf 1b3d
00000080: afc6 aa3c f2a6 a8bd 5e23 fb3c 8d0f 8d3d
00000090: 334c 1abd a09e 80bc 2419 b93c abb4 a7bd
000000a0: 0acd 03bc 1382 623d 57dc 44bb 56da c2bd
000000b0: 51f3 26bc 8dac 033d c843 68bc 0de1 573d
000000c0: 08b6 45bd f512 743b 918e 1bbc afce 07bd
000000d0: 300b 843d e59e 053d 87c7 9d3b 933b 3dbd
000000e0: f574 323c d514 04bc 40ff 953c ba01 84bc
000000f0: bf6b 983d eab7 e3bc 9119 dabc 1f6f 463c
00000100: 781a 9abb 521d 40ba f98a 71bd f8b4 e33c
00000110: 7911 c1bd 61d7 d53d 16b3 3abc 136f fb3b
00000120: a2ed 8b3c 3b98 4b3d 30e2 5abc 6fbc be3d
00000130: 8d0a 36bd f085 e03b 08fa 70bd abb3 79bd
00000140: f2aa 5abc 0d4c 5abd 9b08 593c 8fb7 083d
00000150: 22a2 9bbd 79b7 ad3c e435 3e3d 584b 96bc
00000160: 4a14 813c 8bef 1a3d 1a78 c9bd 0195 ebbc
00000170: cdb0 d53c 17ae 80bd a98d aebc d75a 403c
00000180: 5526 80bb 9a29 933d 596f 8cbd fe59 bdbd
00000190: b88d 89bc 9c0c e8bc 65fd 49bd 1af8 08bc
000001a0: 8ac9 06bd 0fd1 bbbc 8d21 8b3d 6ca8 73bd
000001b0: 0829 93bd ee75 3dbd f125 d4bc d231 303d
000001c0: 9024 81bd 805a 7a3d 0f06 e3bb 6ea4 67bd
000001d0: e0bc a23c 330a 7cbd d785 3c3c 233b 343d
000001e0: 8831 41bd c940 a23d f97f 0abd 2292 19bd
000001f0: b35f 63bd 09ec 9dbc a186 d6bc 822b 0f3d
00000200: 0e54 94bc 02a6 f3bc 16e2 d1bd 0eb1 6a3c
00000210: c901 c9bc d739 00bd 4dbe 1abc e41f dc3a
00000220: ba87 32bd 9246 f03c 32f7 0cbc c7eb 34bd
00000230: f030 04be 0951 0fbd 5fc0 933b ae5b e5bc
00000240: 030a 83bc cd97 9b3c 23f3 1ebd e9a7 843c
00000250: d800 213a a197 56bd 7db4 4d3d 8fc2 813d
00000260: 1c5a 773c 0ae6 dc3c 6472 713d d269 42bd
00000270: b49e 763c bf2d 713c 0d93 8bbd 74e4 173d
00000280: a487 25bc 0cb8 07bd 7ce2 9cbd da38 973d
00000290: 9183 b43d 7e60 b5bc a674 3dbd c284 13bd
000002a0: e031 76bd 2345 0e3d 5b5a c23c 707c 32bc
000002b0: a4c0 86bd d6e3 c8bc 0a1c de3b cde6 e2bd
000002c0: 15ce 75bc 2416 3fbd 84fa ce3c 4da4 17bc
000002d0: f7f8 c2bc 560b 983d 2d53 b7bd 9c7d 743d
000002e0: b347 ba3c 6dee 443c 6d63 7f3d e28b 14bc
000002f0: cd0e 0f3c c512 d63c 1c61 3dbc 9407 9abd
00000300: 6604 f73c e88b 14bd 5ee8 53bd d95a 97bd
00000310: 0024 033d 19fd 28bd 9b61 9f3c 9774 90bc
00000320: 8220 bcbc 29c5 c53d 6932 60bd 2a67 dd3c
00000330: 09bb 01bd ce47 95bd 21c8 90bd 9f37 57bd
00000340: b4c9 64bc fe18 483d 06f8 19bd f285 c73c
00000350: de30 af3b 8bc7 54be d518 7c3c c618 273d
00000360: b523 f73c e496 0b3c 1d15 3bbc 8aa6 a4bd
00000370: abdf e9bc a96d fdbd 3483 d9bc 07b3 75bd
00000380: 4569 7f3d a4b1 05bd 8df1 573c 2a94 97bd
00000390: 7400 46bc 5b71 863d da25 0cbd 6a9a 44bd
000003a0: 2412 f1bc 0d4d c2bd 8f86 52bd 771d 9bba
000003b0: 2238 aeba d0ac 89bd 31f8 83bd 13e4 febc
000003c0: 5504 aebc e70f a4bd 5f2d 65bd 20a1 02bd
000003d0: 3b9b f5bc 194e 1dbb 525e c03c 0642 813d
000003e0: 174e 96bc b9e2 093d 0456 2f3c f95f 5a3c
000003f0: bd48 a4bc 7309 0abd 3e61 b5bd c1de 2ebd
0.00069937145 -0.065640345 0.034615826 -0.05771003 0.0047648996 0.0042927135 -0.10353078 -0.024780964
-0.01690224 0.0087785665 0.07327829 0.027970023 -0.01007941 -0.022064414 0.025215738 -0.051316828
0.006857819 -0.038660575 -0.03831188 0.011766372 -0.04605616 -0.06408383 0.037334435 0.015324055
0.027543345 -0.066557586 -0.028667767 -0.00530988 0.040061276 -0.0077034202 -0.0035618218 0.03802477
0.020846693 -0.08234967 0.030656513 0.06887732 -0.037670325 -0.015700638 0.022594996 -0.081887566
-0.008044491 0.05529983 -0.003003856 -0.095143005 -0.010189847 0.03214698 -0.014176317 0.05270486
-0.0482693 0.0037242745 -0.00949444 -0.033156093 0.06447446 0.032622237 0.0048150453 -0.046199393
0.010892143 -0.008061607 0.01831019 -0.016114105 0.07442426 -0.027797658 -0.02662352 0.012111454
-0.0047028624 -0.0007328588 -0.058970425 0.027796254 -0.09427161 0.10441471 -0.0113952365 0.007673153
0.017081086 0.049705725 -0.013359591 0.093132846 -0.044443656 0.006851904 -0.0588322 -0.06096236
-0.013346421 -0.053295184 0.013246681 0.03337818 -0.07599284 0.02120565 0.046438113 -0.018346474
0.015756745 0.037826102 -0.09837361 -0.028757574 0.026085282 -0.06283205 -0.021307783 0.011740408
-0.0039108195 0.07185669 -0.068571754 -0.0924568 -0.01679121 -0.028326325 -0.04931392 -0.008359933
-0.032907046 -0.022926835 0.06793509 -0.05948679 -0.071855605 -0.046255045 -0.025896998 0.043016262
-0.06305802 0.061121464 -0.0069282125 -0.056553297 0.019865453 -0.061533164 0.011506519 0.04400171
-0.047166377 0.07922513 -0.03381345 -0.03749288 -0.055511188 -0.01927759 -0.026187243 0.0349536
-0.018106487 -0.029742245 -0.102482006 0.01432444 -0.024536984 -0.03130516 -0.009444785 0.0016794172
-0.04358647 0.029330526 -0.008603858 -0.044170167 -0.12909293 -0.03498939 0.0045090164 -0.027997818
-0.015995985 0.018993283 -0.038806092 0.016193347 0.00061417883 -0.0523907 0.050220955 0.06335937
0.015097167 0.02696516 0.058946982 -0.0474642 0.015052486 0.014720379 -0.06815157 0.037083104
-0.01010314 -0.033134505 -0.07660386 0.073838905 0.08814157 -0.022140738 -0.046253823 -0.03601528
-0.06010616 0.034733903 0.023724725 -0.010893926 -0.06579712 -0.024522703 0.006778245 -0.11079178
-0.015002747 -0.046651974 0.02526594 -0.009255481 -0.023800356 0.07424037 -0.089514114 0.059690103
0.022739267 0.012019736 0.06235068 -0.009066554 0.008731556 0.026131997 -0.011558797 -0.07520977
0.030153465 -0.036266237 -0.051735274 -0.07390375 0.032016754 -0.041256998 0.019455722 -0.01763372
-0.02296472 0.09656746 -0.054735575 0.027026732 -0.03167251 -0.07289086 -0.070694216 -0.05254328
-0.013964105 0.04885196 -0.03759005 0.024355862 0.0053464016 -0.20779245 0.01538678 0.04079511
0.030168394 0.008519862 -0.011418608 -0.08039577 -0.028549036 -0.12374432 -0.02655182 -0.059985187
0.062356252 -0.032640114 0.013180149 -0.07401307 -0.012085069 0.065645896 -0.034215786 -0.047998823
-0.029427595 -0.094873525 -0.051397856 -0.0011834343 -0.0013291875 -0.067224145 -0.06443823 -0.031114614
-0.0212423 -0.08010846 -0.055951472 -0.031891942 -0.029981246 -0.0024002849 0.023482475 0.06311421
-0.018347783 0.033663485 0.01070166 0.013328546 -0.020054216 -0.033700418 -0.08856438 -0.042692903

fc3.weight f4 [4, 300]
00000000: f06d 523e 83ce b1be fbd3 a43e 50b5 67be
00000010: 41e0 dc3e 7dfc f73e 347e 77bd af12 b7bd
00000020: c0ce 4e3e 9557 94be 5850 76be ab92 a83e
00000030: a00f e63e ceb3 98be c6f1 d43c ae29 a93d
00000040: d824 303d 3f26 af3e 7c0b 803e ce60 7b3d
00000050: 26b3 9b3e 2255 0cbc 8600 563e 73ca 76be
00000060: 416b b3be 39cd 0d3e a04b 53be 666f f6be
00000070: 1c2e 42be d102 833e e2a3 02bf ad48 3ebe
00000080: 2c91 9b3e 8978 ef3e 45f9 8b3e 2c11 81be
00000090: 6cd6 6a3e 77e8 7e3e b769 793d 606b 113e
000000a0: e9a0 6abd 57bc 58be 899a 973e 84f3 d5bd
000000b0: e8cd 29bf 53ca 363e 2544 d9be 6fa7 92bc
000000c0: 389f f3bd 4f32 20bd c317 313f 8c6e 32be
000000d0: 9348 803e 334e 003d 30c6 9dbe ba78 f33d
000000e0: 9e4f 123e 38fd 3bbd 2497 3b3e 00af 1d3e
000000f0: d646 3abb d105 423e eee1 4bbd fe36 8f3e
00000100: 4fb6 573e e088 bdbe effa 9a3d 79c4 21be
00000110: 9e36 933e 4ba1 9aba f0c9 a4be b1a3 36bd
00000120: 2465 f83b 2825 d53d 4a2e a93e 16e6 5cbc
00000130: bd80 a23d d34d 7d3e 3ea5 8a3e f169 b63d
00000140: e169 4e3e 1316 c4be c995 ccbe cd12 93be
00000150: 1eed 543e db65 493e 1bdd 41be cace e9bd
00000160: d77b 273d 2f6d ea3d d47e c1be cfda be3d
00000170: 48b6 233e b51f 5cbc c549 603e 792e cabe
00000180: 1d2c d93d 9fb9 61be 070a 593e f078 0ebf
00000190: d97d 8d3e ff0e 2cbe 13ba b4be 4eae a4be
000001a0: 0ac3 c0be 879a 5fbe d0d7 bc3d 1c82 68bc
000001b0: dcb4 003f ce99 c0be 7c94 ea3d fdf3 5dbe
000001c0: aed3 9d3c 7689 6bbe dbfe febd 2a65 56bd
000001d0: 9179 f43e 2992 cf3e 58bd 883e b1dc 843d
000001e0: b649 423e 1d55 2b3e 821c 5a3e 2019 9b3d
000001f0: 69fe df3e a172 01bf 6b30 5c3c e004 a0bc
00000200: da46 d03e 5f82 553e da1e aebc 22d3 743e
00000210: 4ffd 76be 182c 543d e51d 9a3d 2391 a8bd
00000220: a0c7 aebc 2b03 3abe 2707 9cbe 0aad d2be
00000230: 6f8a c43e e9cf bd3d 6388 be3e 1f64 b7bd
00000240: 91ac d9bd 05f2 893e 1f8a c9bd ee03 17be
00000250: c229 1b3e 011d 493e 12b1 dcbd fee2 efbd
00000260: b419 ea3e 2038 1ebd 420e a03e bf65 393e
00000270: 74d0 1bbe 2e1a f13c c061 183d f665 d53d
00000280: aa9f 07be 51d5 0d3f 4aa3 963d 7a21 8fbe
00000290: c20c dd3d feb6 c4be c0b1 343e fa3f c83b
000002a0: 84ba c9be cd40 82bc cad1 a33e 96a4 483e
000002b0: a4eb 033c 5a47 b9be f1ff 9fbe 8b73 583e
000002c0: 2049 58be 87f4 993d 8fcb 3a3c 2ca5 da3d
000002d0: 58ae 44bd cc39 bc3e ba2a 0f3e df62 c0be
000002e0: 6f49 833e c59d 353e bb44 c73c 4dd1 e43d
000002f0: 15d4 c83d 1bd1 023f 79ff a2be 16d9 43bc
00000300: 7f18 00bf 2941 6b3e 9a99 8a3c 3824 533e
00000310: b64f 3b3e 5b37 d83c fbcf 16be babc 2abe
00000320: 2512 43be 80f5 d6bd 82fd d93d a9a7 933e
00000330: aeee b2bd 6c42 d2be 4c71 803e 997c 473e
00000340: 3238 a03e 149b 4c3d 82f4 ac3d 3b89 633d
00000350: c047 913e 2f6b 62be 444d c6be cd82 ef3e
00000360: f06c 94bc 3c56 1f3e 5fae 15be 2ac6 22be
00000370: 5f74 cdbd 1a05 ee3e 9db2 a43e 6a4c 14be
00000380: b5b8 493e 3e8e 9e3d 9157 663e 9f1a ef3e
00000390: 1407 9a3e 730a 3ebe 8530 99bd bdc5 b53e
000003a0: 1634 dfbb f948 ecbd a4ab f6bd 6a51 223e
000003b0: dd40 28be 2dc8 563d 5561 0cbf d5f4 2f3e
000003c0: 6719 f03c 0676 f33d d115 2bbd 6f96 b7be
000003d0: 07fe 55be 6b52 d73e 6018 bf3d 2261 3a3e
000003e0: 63ad cb3d c16e 933e 2f03 853e 1def 86bd
000003f0: c7fd 81be 7301 423e 794f cc3e 59c3 97be
0.2054975 -0.34727868 0.32192978 -0.22627759 0.43139842 0.4843482 -0.06042309 -0.089391105
0.20196056 -0.2897307 -0.24054086 0.329244 0.44933796 -0.2982468 0.025994193 0.08259903
0.043003887 0.34208867 0.25008762 0.061371617 0.30410117 -0.008565219 0.20898637 -0.24100666
-0.35042766 0.13847817 -0.20634317 -0.48131865 -0.18962902 0.25588086 -0.51031315 -0.18582411
0.30384195 0.4677165 0.27338615 -0.25208414 0.22933358 0.24893366 0.060891833 0.14201117
-0.057282362 -0.21165596 0.29610088 -0.104468375 -0.66329813 0.17850618 -0.42434803 -0.017902104
-0.11895603 -0.039110478 0.6917688 -0.17424983 0.2505537 0.031324577 -0.30815268 0.11888261
0.14288184 -0.045895785 0.18319374 0.15398788 -0.002842357 0.18947531 -0.04977601 0.27971643
0.21065639 -0.3701849 0.07567393 -0.15797605 0.28752607 -0.0011797337 -0.32185316 -0.044589702
0.0075804163 0.104074776 0.33043128 -0.013482591 0.07934711 0.24736719 0.27079195 0.089069255
0.20157577 -0.3829809 -0.39958027 -0.2872528 0.20793578 0.19667761 -0.18932001 -0.11416395
0.040889587 0.11446606 -0.37792075 0.09319078 0.15987504 -0.013435294 0.21903141 -0.3948858
0.10604117 -0.22043465 0.21195231 -0.55653286 0.27635077 -0.16802596 -0.35298213 -0.32164234
-0.37648803 -0.21836291 0.092208505 -0.014191177 0.5027597 -0.37617344 0.114541024 -0.21675105
0.019265976 -0.23001656 -0.124509536 -0.05234257 0.47748998 0.405412 0.26706958 0.06487406
0.18973431 0.16731687 0.21299937 0.075731516 0.43748787 -0.50565535 0.013439278 -0.019533575
0.40679055 0.20850514 -0.021254946 0.23908666 -0.24120067 0.051799864 0.07525233 -0.08230808
-0.021335423 -0.18165271 -0.30474207 -0.41147643 0.38386866 0.09268171 0.3721343 -0.089546435
-0.106286176 0.2694246 -0.09840798 -0.14747593 0.15152648 0.1963997 -0.10775961 -0.11713217
0.45722735 -0.038627744 0.31260878 0.1810522 -0.15216237 0.029431429 0.037202597 0.10419838
-0.13244501 0.5540362 0.07355364 -0.27955228 0.10793449 -0.38420862 0.17645931 0.006111142
-0.39400113 -0.01590004 0.31995994 0.19594035 0.008051787 -0.3618725 -0.31249955 0.21137826
-0.21121645 0.07517343 0.011401071 0.10676035 -0.04801783 0.36762846 0.13981143 -0.37575433
0.25641963 0.17735966 0.024324765 0.111727335 0.098060764 0.5110032 -0.31835535 -0.011953613
-0.5003738 0.22974075 0.016918946 0.20619285 0.18292126 0.026393583 -0.14727776 -0.16673556
-0.1904989 -0.10496044 0.10644056 0.28838852 -0.08736931 -0.410663 0.2508644 0.19481124
0.31292874 0.04995258 0.08445074 0.055550795 0.28375053 -0.221112 -0.38730824 0.4677948
-0.018118352 0.1556024 -0.14617299 -0.15895906 -0.10031962 0.46488267 0.3216752 -0.14482275
0.19699366 0.07741974 0.22494341 0.46699998 0.30083525 -0.18558674 -0.074799575 0.35502425
-0.006811629 -0.11537356 -0.120444566 0.1585137 -0.16430993 0.052436996 -0.54836017 0.1718324
0.029308988 0.118877456 -0.041768853 -0.3585696 -0.20897685 0.42055067 0.09330821 0.18201116
0.0994518 0.28795436 0.2597899 -0.06588576 -0.2538893 0.18945865 0.39904383 -0.29641226

fc3.bias f4 [4]
00000000: 55ad 993b 8f96 1ebd a03e 653d 8bfb b9bd
0.0046898522 -0.038717803 0.055967927 -0.09081181
