solved_t2_checkpoint_critic.pth (torch, 543903 bytes, 5 tensors)

fcs1.weight f4 [400, 33]
0	0x3d980a9f	0.07423901
1	0x3f22a6da	0.63535845
2	0xbee73eb8	-0.45165038
3	0xbeb44f59	-0.35216787
4	0xbe840b89	-0.2579005
5	0x3e207ee5	0.15673406
6	0xbec7da9e	-0.3903398
7	0x3c847f6e	0.016174044
8	0x3e546b06	0.20743951
9	0xbeaf22c4	-0.34206212
10	0xbe2c8b51	-0.1685002
11	0xbcf404e7	-0.029787494
12	0xbe3a8e5e	-0.18218371
13	0xbc3a4812	-0.011369722
14	0x3db5d02d	0.08877597
15	0x3e9a845c	0.30179107
16	0xbe916877	-0.28400013
17	0x3dc44c15	0.09584824
18	0xbe5a4b10	-0.21317697
19	0xbe485ddc	-0.19567055
20	0xbd6172dc	-0.05504118
21	0xbde02f21	-0.10946489
22	0xbe0784ac	-0.13234204
23	0xbecc7afa	-0.39937574
24	0xbd55699b	-0.052102666
25	0xbe14f72e	-0.14547417
26	0x3dc79191	0.097445615
27	0x3f75e3e2	0.96050847
28	0xbe84523e	-0.25843996
29	0xbc8af5c0	-0.016962886
30	0xbf6d4269	-0.9267946
31	0x3d2aa78f	0.041663703
32	0xbffc06bb	-1.9689554
33	0xbe045a72	-0.12925127
34	0x3f168d80	0.5880966
35	0xbcce02ff	-0.025147913
36	0xbe702601	-0.23451997
37	0x3d7e63df	0.062106963
38	0x3e229ea3	0.15880828
39	0xbdbbf0d9	-0.091767974
40	0x3e00393f	0.12521838
41	0x3ee6e063	0.45093068
42	0xbe8775f1	-0.2645717
43	0x3e5d3cf3	0.21605282
44	0x3d1b508d	0.037918616
45	0x3ccd4d27	0.025061203
46	0xbd104c66	-0.03522911
47	0x3ef0cef8	0.47032905
48	0x3dca0a2a	0.0986522
49	0xbed82343	-0.42214403
50	0xbefa1942	-0.48847395
51	0xbac13104	-0.0014739339
52	0x3d80507d	0.06265352
53	0xbcea517c	-0.028603308
54	0x3d5aacbe	0.053387396
55	0x3cef3a44	0.029202588
56	0x3dcf1507	0.101114325
57	0x3e2db909	0.16965117
58	0xbb12224f	-0.0022298282
59	0x3d121844	0.035667673
60	0x3f8cf662	1.101269
61	0xbe14c42d	-0.1452796
62	0xbd2d429b	-0.042299848
63	0xbf8d8de1	-1.1058923
64	0xbc9d27fd	-0.019184107
65	0x3e31f0f9	0.1737708
66	0xbd79fbd7	-0.06103119
67	0xbdc297f4	-0.09501639
68	0xbe4540d7	-0.19263016
69	0xbe903eab	-0.28172812
70	0xbeb24358	-0.34817004
71	0xbe4eee02	-0.2020798
72	0x3e1d7112	0.15375164
73	0x3e4e1f0f	0.20129035
74	0x3e48ea52	0.19620636
75	0x3ea07040	0.3133564
76	0x3efb985c	0.49139678
77	0xbe940081	-0.28906634
78	0xbe48774a	-0.19576755
79	0x3cda620d	0.026658082
80	0x3a5336cf	0.00080571783
81	0xbd774609	-0.060369525
82	0x3f1b8058	0.6074271
83	0x3e685fe3	0.22692828
84	0x3c9d6fdd	0.01921838
85	0xbc6820ad	-0.014167947
86	0xbe015761	-0.12630989
87	0xbb8b43c7	-0.004250023
88	0xbec89977	-0.39179584
89	0xbe96fd94	-0.2949034
90	0x3e82780e	0.2548222
91	0x3ea23e70	0.3168826
92	0xbe179dd4	-0.148063
93	0x3f5d0b1d	0.8634508
94	0x3e1a8a5d	0.15091844
95	0x3bd79230	0.006578706
96	0xbf727deb	-0.94723386
97	0xbbcb5f00	-0.0062063932
98	0x3f191bb8	0.5980792
99	0x3ed8b330	0.4232421
100	0x3ea6bb6f	0.32564875
101	0x3e99ee92	0.30064827
102	0xbe9049fe	-0.28181452
103	0x3eb1a560	0.34696484
104	0x3e264e88	0.16240895
105	0x3e243b92	0.1603835
106	0x3e329cb6	0.17442593
107	0x3e9f781d	0.31146327
108	0xbe6bdba0	-0.23032999
109	0xbdba0ea4	-0.09084824
110	0xbe428ab1	-0.18998219
111	0x3df26c48	0.11837059
112	0x3d162c87	0.03666356
113	0x3e2b29df	0.16715191
114	0x3c38edce	0.011287166
115	0xbd31c3d5	-0.04339965
116	0x3ea7bcb5	0.3276116
117	0xba9e059d	-0.0012056116
118	0x3e2ad6fa	0.1668357
119	0xbe3be164	-0.18347698
120	0xbedec4ae	-0.4350943
121	0xbd35405a	-0.044250824
122	0x3d64ea03	0.055887233
123	0xbe81668f	-0.25273558
124	0xbe34bcd4	-0.17650157
125	0xbeba2fce	-0.36364597
126	0x3f943360	1.1578178
127	0xbd342d5c	-0.04398857
128	0xbc1271ac	-0.008938234
129	0xbf902915	-1.1262537
130	0x3c96af8e	0.018394258
131	0x3e9b295b	0.3030499
132	0xbe952411	-0.2912908
133	0x3f40e7d6	0.75353754
134	0xbe439c4d	-0.19102593
135	0xbe84b8f0	-0.25922346
136	0x3eaff773	0.34368476
137	0xbe19c97e	-0.1501827
138	0xbe9bd340	-0.30434608
139	0x3e92bebc	0.28661144
140	0x3ea543e6	0.32278365
141	0xbe59d961	-0.2127433
142	0x3e5e389a	0.2170128
143	0x3dbd73c6	0.09250598
144	0x3e200624	0.15627342
145	0xbe69dfc1	-0.22839262
146	0x3f3182a3	0.6933996
147	0xbd857158	-0.06515759
148	0xbd14cbd9	-0.036327217
149	0x3d072c5f	0.0330013
150	0x3efa980a	0.48944122
151	0x3d11b814	0.03557594
152	0x3c0faf21	0.008769781
153	0x3d4e4808	0.050361663
154	0xbcc2f6cc	-0.023799323
155	0x3e696383	0.22791867
156	0x3d9187bc	0.071059674
157	0x3d119efa	0.035552002
158	0xbd22dc67	-0.039760973
159	0x3f6f14b0	0.9339094
160	0x3d95b1b7	0.07309287
161	0x3cc04d36	0.023474317
162	0xbf781a16	-0.96914804
163	0x3c873b4a	0.016507763
164	0x3e8d75f9	0.27629068
165	0xbd0bd329	-0.034136925
166	0x3eb5e381	0.35525134
167	0x3d149173	0.036271524
168	0xbed3c6da	-0.4136265
169	0x3f1518fe	0.5824126
170	0xbed44fde	-0.41467184
171	0x3d74211b	0.059601884
172	0x3f109d3d	0.56489927
173	0x3dddcee5	0.108304776
174	0xbe773a2e	-0.24143288
175	0x3d3a630e	0.045504622
176	0xbeaa46e0	-0.33257198
177	0x3cf5374c	0.029933594
178	0x3e4f98e5	0.20273168
179	0x3ed426cb	0.41435847
180	0x3e066b24	0.13126808
181	0x3e4f8819	0.20266761
182	0x3dd710cf	0.10501253
183	0x3ed44b7f	0.4146385
184	0xbe6f5b3d	-0.23374648
185	0x3ca5f717	0.020259423
186	0x3ed17b87	0.40914556
187	0xbe8093f2	-0.25112873
188	0x3e673a71	0.22580887
189	0x3e78cb01	0.2429619
190	0x3d6c26e0	0.05765426
191	0x3cf4221d	0.029801423
192	0x3f994c9e	1.1976507
193	0x3e184b39	0.14872445
194	0x3b2587e0	0.002525799
195	0xbf9ae3a6	-1.2100723
196	0x3d25e197	0.040498342
197	0x3edf74fc	0.4364394
198	0x3edd724e	0.4325127
199	0xbd17b1a0	-0.03703463
200	0xbee8eb9a	-0.4549225
201	0xbecdf3d0	-0.40225077
202	0x3e73f99c	0.23825687
203	0xbf229af4	-0.6351769
204	0xbe449e04	-0.19200903
205	0xbdd38245	-0.10327581
206	0xbd2bf80e	-0.04198461
207	0x3eadc28a	0.33937484
208	0x3d1d7126	0.038437985
209	0xbe84816a	-0.25879985
210	0xbcc378e1	-0.02386135
211	0xbecbbde1	-0.39793304
212	0x3e850afb	0.2598494
213	0x3f076f0e	0.5290383
214	0xbe1fb4c8	-0.15596306
215	0xbdc419a2	-0.095752016
216	0xbe8ef815	-0.27923647
217	0xbe7c3bdc	-0.2463221
218	0x3d7a3804	0.061088577
219	0x3e68af3c	0.22723097
220	0xbdd7c0c0	-0.10534811
221	0x3e4302cd	0.19044037
222	0x3e14089d	0.1445641
223	0xbe665da5	-0.2249666
224	0x3e6a4563	0.22878031
225	0x3ebf8677	0.37407276
226	0xbec0b6c6	-0.37639445
227	0x3d15ac2f	0.03654116
228	0xbed38f89	-0.41320446
229	0x3c8d741a	0.017267276
230	0xbe102027	-0.14074765
231	0xbf0b3735	-0.54381114
232	0x3e7f6817	0.24942051
233	0xbe0c4377	-0.13697611
234	0xbd38b364	-0.045092955
235	0xbedccd42	-0.4312535
236	0x3ee3d280	0.44496536
237	0xbe0c08ac	-0.13675183
238	0x3e867a48	0.26265168
239	0x3ecde463	0.40213308
240	0xbd157796	-0.036491
241	0xbea86b87	-0.32894537
242	0xbe761644	-0.24031931
243	0xbdff34d3	-0.12461247
244	0xbd940910	-0.07228291
245	0x3ead8ddd	0.33897296
246	0xbe6f6645	-0.23378856
247	0x3ec23977	0.37934467
248	0xbe1f624f	-0.15564846
249	0x3e229320	0.15876436
250	0x3eb105a5	0.3457462
251	0xbd1b63a1	-0.03793681
252	0xbea824f0	-0.3284068
253	0xbde53a72	-0.11192788
254	0x3eb6359f	0.35587785
255	0xbc8a4bab	-0.016881784

fcs1.bias f4 [400]
0	0xbf3f8de9	-0.7482591
1	0xbf7f9089	-0.9982992
2	0xbf3cac93	-0.7370083
3	0xbf74f989	-0.9569326
4	0xbf76ffb9	-0.9648395
5	0xbf87672a	-1.0578358
6	0xbeb76c6e	-0.35824913
7	0xbf8f2792	-1.1183951
8	0xbf41314c	-0.75465846
9	0xbf9617f0	-1.1726055
10	0xbf3d3c4c	-0.7392013
11	0xbf7a645e	-0.978094
12	0xbf9469cc	-1.1594787
13	0xbf88b3e1	-1.0679895
14	0xbeeccf7f	-0.46252057
15	0xbf9b0c76	-1.2113178
16	0xbf94c058	-1.1621199
17	0xbf7c4749	-0.9854627
18	0xbf88cf05	-1.0688177
19	0xbf9252c7	-1.1431512
20	0xbf8c9354	-1.0982461
21	0xbe3a1ada	-0.18174306
22	0xbf8c616e	-1.0967233
23	0xbf2729b7	-0.65298027
24	0xbf61d3ad	-0.88213617
25	0xbf9a81c3	-1.207085
26	0xbf427294	-0.7595608
27	0xbf579297	-0.84208053
28	0xbeedd3df	-0.46450707
29	0xbf77eaeb	-0.9684283
30	0xbf32de04	-0.6987002
31	0xbf9bb1e2	-1.216366
32	0xbf715e88	-0.9428487
33	0xbf807de2	-1.0038416
34	0xbf25cefe	-0.6476897
35	0xbf67d10b	-0.9055335
36	0xbf98837d	-1.1915127
37	0xbf635e0a	-0.8881537
38	0xbf90fac2	-1.1326525
39	0xbf8ccfa4	-1.1000867
40	0xbf585008	-0.8449712
41	0xbf2ef430	-0.6834135
42	0xbf5f858c	-0.8731315
43	0xbf8cf7bb	-1.1013101
44	0xbf6a0098	-0.91407156
45	0xbf7fb11b	-0.99879616
46	0xbf58d7b7	-0.84704155
47	0xbf658e3e	-0.8967017
48	0xbfa0e04a	-1.2568448
49	0xbfa6da0b	-1.3035291
50	0xbf5e6f37	-0.8688845
51	0xbf808cdc	-1.0042987
52	0xbf853b99	-1.0408813
53	0xbf633e71	-0.88767153
54	0xbf7337fd	-0.95007306
55	0xbe6f3dd1	-0.23363425
56	0xbf86cd9c	-1.0531497
57	0xbf38f7eb	-0.7225329
58	0xbf8d71d3	-1.1050361
59	0xbf94f9f8	-1.1638784
60	0xbf89a622	-1.0753825
61	0xbf49a29c	-0.7876375
62	0xbf4d7fb7	-0.80273
63	0xbf8be878	-1.0930319
64	0xbf809beb	-1.0047582
65	0xbf80b1b4	-1.0054231
66	0xbed2b8ec	-0.4115671
67	0xbf2a7b52	-0.6659442
68	0xbf3260b7	-0.69678825
69	0xbf9f9161	-1.2466241
70	0xbf7b65a5	-0.9820197
71	0xbf4c621a	-0.7983719
72	0xbf719583	-0.9436876
73	0xbfa8b169	-1.3179141
74	0xbf8731b4	-1.0562043
75	0xbf6af427	-0.91778797
76	0xbf56f9ba	-0.839748
77	0xbf5cd181	-0.8625718
78	0xbf11b277	-0.5691294
79	0xbd5fe23a	-0.054659106
80	0xbf6acb0c	-0.91716075
81	0xbf652411	-0.8950816
82	0xbf8e1a11	-1.1101705
83	0xbf89b50c	-1.0758376
84	0xbf13fcf3	-0.57807845
85	0xbf86938b	-1.0513777
86	0xbb46d54e	-0.0030339542
87	0xbf9b719e	-1.2144048
88	0xbe923fa7	-0.28564188
89	0xbf3edb1b	-0.7455308
90	0x3f11aeac	0.56907153
91	0xbf7fcc37	-0.9992098
92	0xbf77a3b4	-0.96734166
93	0xbf9826f1	-1.1886884
94	0xbf4b414c	-0.7939651
95	0xbf3abd1c	-0.7294481
96	0xbfa32ffc	-1.2749019
97	0xbf8533db	-1.040645
98	0x3f0d884a	0.55286086
99	0xbf418d0d	-0.7560585
100	0xbf9b8415	-1.2149683
101	0xbfacd422	-1.3502238
102	0xbf85b6e3	-1.0446438
103	0xbf8323d6	-1.0245311
104	0xbfaa8978	-1.3323202
105	0xbf9ea1ac	-1.2393088
106	0xbf7fe71e	-0.9996203
107	0xbfa04de1	-1.2523767
108	0xbf3622f8	-0.7114711
109	0xbf33fda5	-0.70308906
110	0x3d14f036	0.036361896
111	0xbf6da766	-0.92833555
112	0xbf5b20d2	-0.85596955
113	0xbf0b17a0	-0.54332924
114	0xbf8606e5	-1.0470854
115	0xbf910c60	-1.1331902
116	0xbf1bfdde	-0.60934246
117	0xbea63394	-0.32461226
118	0xbf4f1a56	-0.8089956
119	0xbf3dc12a	-0.7412287
120	0xbf8fef72	-1.1244948
121	0xbf7b5c7e	-0.98188007
122	0xbf715472	-0.9426948
123	0xbf8a85af	-1.0822047
124	0xbf22437c	-0.63384223
125	0xbf36d7f2	-0.71423256
126	0xbf7ccfe3	-0.9875471
127	0xbf837521	-1.027012
128	0xbf99b7bc	-1.2009196
129	0xbf7748fb	-0.96595734
130	0xbf86711a	-1.0503266
131	0xbf458a86	-0.77164495
132	0xbf7e0e0d	-0.9924019
133	0xbecdff80	-0.40233994
134	0xbf7ce164	-0.9878142
135	0xbec0bd83	-0.37644586
136	0xbf38cf2c	-0.7219112
137	0xbf6147d8	-0.8800025
138	0xbf726446	-0.94684255
139	0x3c37f171	0.011226998
140	0xbf085eb4	-0.53269506
141	0xbf067372	-0.52519906
142	0xbf956559	-1.1671554
143	0xbf73f1d2	-0.95290864
144	0xbf715252	-0.94266236
145	0xbf355dad	-0.7084606
146	0xbf8126af	-1.008993
147	0xbf9cac93	-1.2240165
148	0xbf1423e9	-0.57867295
149	0xbf894be6	-1.0726287
150	0xbf2f42ea	-0.6846148
151	0xbf88dd4a	-1.0692532
152	0xbf69dd95	-0.9135373
153	0xbf3e0c2f	-0.7423734
154	0xbf367f28	-0.71287775
155	0xbf833624	-1.0250897
156	0xbdbe3e75	-0.092892565
157	0xbed1988c	-0.40936697
158	0xbf9170f7	-1.1362599
159	0xbf44f90d	-0.7694252
160	0xbf1d0a67	-0.61344
161	0xbf5fec1f	-0.8746967
162	0xbf25b36b	-0.64726895
163	0xbf1f71c2	-0.62282956
164	0xbf7efccd	-0.99604493
165	0xbf8cbb06	-1.0994575
166	0xbf7b219d	-0.98098165
167	0xbf8e3d3c	-1.1112437
168	0xbf5bffbc	-0.85937095
169	0xbf6ff4ec	-0.93733096
170	0xbfbbfc44	-1.468636
171	0xbf43429e	-0.76273525
172	0xbf76c3d4	-0.9639256
173	0xbef960c2	-0.48706633
174	0xbf94c9c5	-1.1624075
175	0xbf291d06	-0.6605991
176	0xbf3383ee	-0.70123184
177	0xbf802d20	-1.0013771
178	0xbf8f7c21	-1.1209756
179	0xbebaa2ff	-0.3645248
180	0xbf84732d	-1.0347649
181	0xbf7267dc	-0.94689727
182	0xbf26819d	-0.65041524
183	0xbf627211	-0.884553
184	0xbf6df59b	-0.9295289
185	0xbeed9667	-0.4640381
186	0xbf96dd0b	-1.1786207
187	0xbf8f8ce2	-1.1214869
188	0xbf83859d	-1.027515
189	0x3f226f98	0.6345153
190	0xbf793f0d	-0.9736183
191	0xbf393b04	-0.72355676
192	0xbf1e7e0f	-0.619111
193	0xbf881ff7	-1.0634755
194	0xbf9053c4	-1.1275563
195	0xbf89c4ac	-1.0763144
196	0xbf7976df	-0.9744701
197	0xbf7b1900	-0.9808502
198	0xbf40dd3a	-0.75337565
199	0xbf91b1a2	-1.1382334
200	0xbf9074fc	-1.1285701
201	0xbf2fb6b3	-0.6863815
202	0xbf8be9d1	-1.093073
203	0xbf8064b1	-1.0030729
204	0xbf8ae333	-1.0850586
205	0xbf716240	-0.9429054
206	0xbf777a75	-0.9667123
207	0xbf813fcc	-1.0097594
208	0xbf961c36	-1.1727359
209	0xbf6e9171	-0.93190676
210	0xbf876489	-1.0577556
211	0xbf538566	-0.82625425
212	0xbf557a3f	-0.8338966
213	0xbf50fcce	-0.8163575
214	0xbf18a711	-0.59629923
215	0xbea12ada	-0.31478006
216	0xbf9d272c	-1.2277579
217	0xbf5012b9	-0.8127857
218	0xbf88720f	-1.0659808
219	0xbf803705	-1.0016791
220	0xbf914658	-1.1349592
221	0xbf70e005	-0.94091827
222	0xbf852a39	-1.040351
223	0xbf2780e6	-0.6543106
224	0xbecd4540	-0.40091896
225	0xbf82580b	-1.0183119
226	0xbf0f8116	-0.56056345
227	0xbf475cdc	-0.7787607
228	0xbf7195a2	-0.94368947
229	0xbf9babad	-1.2161766
230	0xbf7aee52	-0.980199
231	0xbf68cd6a	-0.90938437
232	0xbf9a92e3	-1.2076076
233	0xbf83fdf8	-1.031188
234	0xbf910880	-1.1330719
235	0xbf626509	-0.8843542
236	0xbf490a7e	-0.78531635
237	0xbf0740b7	-0.5283312
238	0xbf9de3f9	-1.2335197
239	0xbf5ed26c	-0.8703983
240	0xbf6c9464	-0.92413926
241	0xbf373756	-0.7156881
242	0xbf71a7e1	-0.9439679
243	0xbf86c1d5	-1.0527903
244	0xbf9ec7d2	-1.240473
245	0xbf460a29	-0.77359253
246	0xbf0d4bf3	-0.55194014
247	0xbf5e110b	-0.86744756
248	0xbf87f526	-1.0621688
249	0xbf6e6947	-0.9312939
250	0xbf5ddd7a	-0.8666607
251	0xbf13c4d5	-0.57722217
252	0xbf103dee	-0.563445
253	0xbf8f0c23	-1.1175579
254	0xbe19fdb0	-0.1503818
255	0xbf50df5c	-0.8159082

fc2.weight f4 [300, 404]
0	0x3cfd5dd9	0.03092854
1	0x3d2e76b0	0.042593658
2	0xbd6076fd	-0.054800976
3	0xbd73267a	-0.059362866
4	0xbc2a87d7	-0.010408363
5	0xbd08a6a2	-0.03336204
6	0x3d240399	0.040042493
7	0xbbd6714e	-0.0065442687
8	0x3c61a01d	0.013771084
9	0xbd79c371	-0.060977403
10	0x3d23d9ba	0.040002562
11	0xbc8884ff	-0.01666498
12	0x3d5370c9	0.051621232
13	0x3bee21e1	0.0072672223
14	0xbdb2786d	-0.08714376
15	0xbcd75084	-0.02628351
16	0xbb65e6d6	-0.0035080216
17	0x3d36d5eb	0.0446376
18	0x3c1b87e9	0.009492853
19	0xbc47410b	-0.012161504
20	0xbccde45d	-0.025133306
21	0x3c1d5aaa	0.0096041355
22	0x3d1bb81e	0.038017385
23	0xbd9b634c	-0.07587299
24	0xbce731b3	-0.02822194
25	0xbcb0288a	-0.021503706
26	0xbd936b52	-0.07198204
27	0x3cdbf442	0.02684987
28	0xbcace738	-0.021106347
29	0xbd974071	-0.07385338
30	0x3cb01c08	0.021497741
31	0xbdd6fe27	-0.104976945
32	0xbd700b37	-0.058604445
33	0xbcfeafd9	-0.03108971
34	0xbbaad882	-0.005213798
35	0xbd403156	-0.04692205
36	0xbbe85bb5	-0.0070910105
37	0xbc29fe3d	-0.010375557
38	0x3caf5846	0.021404397
39	0xbd4939e6	-0.049127482
40	0x3d05ec89	0.03269628
41	0xbe1f982a	-0.1558539
42	0xbd8aca9c	-0.06776926
43	0x3c779476	0.015111079
44	0xbce33ccc	-0.027738951
45	0xbb8efa01	-0.004363299
46	0xbcad1407	-0.021127714
47	0xbd870b19	-0.065939136
48	0xbd7f586b	-0.06234018
49	0xbc651f71	-0.013984547
50	0xbc62ef22	-0.013850959
51	0xbda2fc15	-0.07958237
52	0xbb97b3c8	-0.004629586
53	0x3be1c23d	0.00688961
54	0xbc11ab91	-0.008891002
55	0xbc5e9e00	-0.013587475
56	0x3c85942e	0.01630601
57	0xbcd2854e	-0.02569833
58	0xbdaf0380	-0.085455894
59	0xbc881ba3	-0.01661474
60	0xbc5a4c18	-0.013323806
61	0xbde0c5f0	-0.109752536
62	0xbd5827d2	-0.05277235
63	0xbc5350f7	-0.0128977215
64	0x3cb20b92	0.021734033
65	0x3cd7d8a7	0.026348425
66	0xbd209eef	-0.03921407
67	0xbd41faa8	-0.047358185
68	0xbde87384	-0.11350158
69	0xbcace17c	-0.021103613
70	0x3c3fee12	0.011714475
71	0xbd782561	-0.060582522
72	0x3d05e12f	0.032685455
73	0x3c02d3a4	0.007985029
74	0x3c40e2d1	0.011772827
75	0xbd05a3ce	-0.03262692
76	0xbd83c9f4	-0.06435004
77	0xbd716fbf	-0.05894446
78	0xbbe8f573	-0.007109338
79	0xbd1170ed	-0.035508085
80	0xbdd0a908	-0.1018849
81	0xbcbcdede	-0.02305549
82	0x3ce554bc	0.027994506
83	0xbdb7c75e	-0.08973573
84	0xbd59673a	-0.05307696
85	0xbd1933c5	-0.037402887
86	0xbd0e5b37	-0.034754958
87	0xbc0436d9	-0.008069717
88	0xbdb65491	-0.089028485
89	0xbdb8efcc	-0.090301126
90	0xbcb476c8	-0.022029296
91	0xbcf04048	-0.029327527
92	0xbcba90e5	-0.02277417
93	0x3d364bcf	0.04450589
94	0xbda4441c	-0.08020803
95	0xbc443283	-0.011974934
96	0xbcb69757	-0.022288961
97	0xbc731b39	-0.014838033
98	0xbd8f7b48	-0.07005936
99	0xbd4b88f5	-0.04969116
100	0xbc1d0e4a	-0.009585926
101	0xbd693416	-0.05693444
102	0x3d2a6dac	0.041608498
103	0xbc64c635	-0.013963272
104	0xbd4478fd	-0.047966946
105	0x3bb15dc3	0.0054127886
106	0xbd8645a3	-0.06556251
107	0xbd51401b	-0.051086526
108	0xbcea61fd	-0.028611178
109	0xbc82f8e5	-0.015987823
110	0xbd957538	-0.07297748
111	0xbd833928	-0.06407386
112	0xbd99ba49	-0.07506234
113	0xbd0826aa	-0.033239998
114	0x39bbb630	0.0003580316
115	0x3d365052	0.044510193
116	0xbd11b4fe	-0.035573
117	0xbc64efd7	-0.013973198
118	0x3d17dd09	0.03707603
119	0x3c115176	0.008869519
120	0xbb85b486	-0.004080358
121	0xbba1a850	-0.0049333945
122	0xbd112b51	-0.0354417
123	0x3d2fe39c	0.042941675
124	0xbd57fdfd	-0.052732456
125	0xbd9e063a	-0.077160314
126	0xbc49d8d6	-0.012319764
127	0xbce4ea9b	-0.0279439
128	0xbd07aa5c	-0.03312145
129	0xbd516a26	-0.05112662
130	0xbdbcafda	-0.092132285
131	0xbd6b4351	-0.057437245
132	0xbd289a33	-0.04116268
133	0xbbc7aa9b	-0.006093336
134	0xbc13b058	-0.009014212
135	0xbd4d10aa	-0.05006472
136	0xbd17b482	-0.03703738
137	0xbdb10e86	-0.08645348
138	0xbd75ce1c	-0.060011014
139	0xbd5282ec	-0.051394388
140	0x3d132303	0.03592206
141	0xbcaa9cd1	-0.020826729
142	0x3c0b4915	0.008501311
143	0x3c763c13	0.015028971
144	0x3cc30ebe	0.02381074
145	0xbd3fc2c2	-0.046816595
146	0xbd03783d	-0.03209709
147	0xbc5a2843	-0.013315263
148	0xbe04d9cf	-0.12973712
149	0x3c811e50	0.015761524
150	0xbc82e409	-0.015977876
151	0xbd0b1af6	-0.03396126
152	0xbcb2c22a	-0.0218211
153	0xbdf56c79	-0.1198358
154	0xbd9c5140	-0.07632685
155	0xbc8037cb	-0.015651604
156	0xbde3490c	-0.11097917
157	0xbd863eca	-0.06554945
158	0x3c2a6734	0.010400582
159	0xbdc8e013	-0.09808364
160	0xbd92cc87	-0.07167917
161	0x3c04d0f8	0.008106463
162	0x3c913197	0.017723842
163	0xbdb913dd	-0.09036992
164	0x3c1a1939	0.009405428
165	0x3be82976	0.0070850207
166	0x3dde0ca5	0.108422555
167	0xbc7aaba2	-0.0152997095
168	0x3c2d6f08	0.010585554
169	0xbd3841cc	-0.044984624
170	0x3cc5640e	0.024095561
171	0xbd764911	-0.060128275
172	0xbd8c3037	-0.06845134
173	0xbd6626ad	-0.056189228
174	0xbcc3e356	-0.023912113
175	0x3d36223b	0.04446624
176	0xbdca8ef3	-0.09890547
177	0x3c96fb30	0.018430322
178	0xbd04f152	-0.032456703
179	0x3c749861	0.014928908
180	0x3ba67d02	0.00508082
181	0xbd4950d6	-0.049149357
182	0xbc844759	-0.016147302
183	0xbcf82919	-0.030293034
184	0xbbb69432	-0.0055718655
185	0xbd1536f7	-0.03642937
186	0x3c2bfcd9	0.010497295
187	0x3ca8085d	0.0205118
188	0x3d383e88	0.04498151
189	0xbd61c238	-0.055116862
190	0xbc54a32f	-0.012978359
191	0x392283b1	0.00015498583
192	0xbd08ffb1	-0.03344697
193	0x3d49c4d6	0.049259983
194	0x3c1b2ad5	0.009470661
195	0xbd81cd61	-0.06338001
196	0x3aace516	0.0013190832
197	0xbce40f5c	-0.027839355
198	0xbd9bccf7	-0.07607453
199	0x3c5a9543	0.013341251
200	0xbd3f09dd	-0.046640266
201	0xbd8a5f81	-0.06756497
202	0xbc2961a0	-0.010338217
203	0x3c279295	0.010227819
204	0x3c97bbad	0.018522108
205	0xbb17c6f8	-0.0023159366
206	0x3d38c374	0.045108274
207	0xbd3db6ae	-0.046316795
208	0x3b63c3e7	0.0034754218
209	0xbd633089	-0.05546621
210	0xbd85a05e	-0.06524728
211	0xbd04d8a8	-0.032433182
212	0xbc51a6f7	-0.012796155
213	0xbc8e4d4c	-0.017370842
214	0xbdaa96f5	-0.08329574
215	0x3bebfdc9	0.0072018844
216	0xbd3959a3	-0.0452515
217	0x3c225b8d	0.009909523
218	0xbc4dc9ab	-0.012560288
219	0xbd6c3967	-0.05767193
220	0xbd6baf5a	-0.057540275
221	0xbce9d701	-0.028544905
222	0xbd5ed4cf	-0.05440217
223	0xbd771d96	-0.06033095
224	0xbdd1cbdf	-0.102439635
225	0xbdab825e	-0.08374475
226	0xbd8ac1c6	-0.067752406
227	0x3aa11977	0.0012290914
228	0xbd26c611	-0.040716235
229	0x3d121537	0.035664763
230	0xbd7e7bcb	-0.062129777
231	0x3afa0ba8	0.001907696
232	0x3c22289c	0.009897377
233	0xbd067029	-0.032821808
234	0x3c16c905	0.0092032
235	0xbcfa8abe	-0.030583736
236	0xbc318039	-0.010833793
237	0xbc6887da	-0.014192546
238	0xbd5a43a9	-0.053287182
239	0xbd7df214	-0.06199844
240	0xbc19b4fc	-0.009381529
241	0xbd169b37	-0.03676912
242	0x3d5922a8	0.053011566
243	0x3b0d654e	0.0021575275
244	0xbd2b2c91	-0.04179055
245	0xbcac1517	-0.02100615
246	0xbcf723ac	-0.030168377
247	0xbc672ca2	-0.014109762
248	0xbb22ef66	-0.002486193
249	0x3c79898c	0.015230548
250	0xbdb694a5	-0.089150704
251	0xbc2619c4	-0.010137979
252	0x3d889ec5	0.06670908
253	0xbd4cc3a5	-0.04999127
254	0x3d39f7e9	0.04540244
255	0xbd1c3bc7	-0.038142946

fc2.bias f4 [300]
0	0xbdeb122a	-0.11478074
1	0xbd9b01f5	-0.07568733
2	0xbd20c727	-0.039252426
3	0xbcf6925e	-0.03009909
4	0xbd7fa0d5	-0.06240924
5	0xbd893a28	-0.067005455
6	0xbd5eeb94	-0.054423884
7	0xbd063168	-0.03276196
8	0xbd038b86	-0.03211548
9	0x3ca11f79	0.019668328
10	0xbd45373c	-0.04814838
11	0xbd96801a	-0.07348652
12	0xbcf73b00	-0.0301795
13	0xbdb904ef	-0.09034144
14	0xbd55204f	-0.052032765
15	0xbd442fc6	-0.047897123
16	0xbd7aa0e5	-0.061188597
17	0xbe4837f6	-0.19552597
18	0xbcd8a1ef	-0.026444403
19	0xbc9e1bb1	-0.019300314
20	0xbde0f149	-0.109835215
21	0xbdb076b4	-0.08616391
22	0xbde71343	-0.11282971
23	0x3aeedb7c	0.001822337
24	0x3f4855e2	0.78256047
25	0xbd8f29d0	-0.06990397
26	0xbde6b40f	-0.11264812
27	0x3d0ff2fb	0.035143834
28	0xbda65436	-0.08121531
29	0x3c825a4c	0.015912198
30	0x3ba976ca	0.0051716315
31	0xbdc99386	-0.09842591
32	0x3d83774e	0.0641924
33	0xbdf089c8	-0.1174503
34	0xbd1098b3	-0.035301875
35	0xbc6c007c	-0.014404412
36	0xbdb92a8a	-0.09041317
37	0xbd944e69	-0.07241518
38	0xbce6dc4e	-0.028181221
39	0xbd2a47ac	-0.041572258
40	0xbda0edba	-0.07857843
41	0xbd3a837f	-0.04553556
42	0xbc1d8007	-0.009613044
43	0x3c8e6424	0.017381735
44	0xbd7a66e8	-0.061133295
45	0xbda0807a	-0.07837005
46	0x3cc1c287	0.023652328
47	0xbe140035	-0.14453204
48	0xbda0b039	-0.07846112
49	0xbd81fe3a	-0.06347318
50	0xbdae35e9	-0.08506376
51	0xbdd29350	-0.10282004
52	0xbdf0be2c	-0.117550224
53	0xbcfd0744	-0.030887254
54	0xbd387946	-0.04503753
55	0xbd06feba	-0.03295777
56	0xbd9df656	-0.077130005
57	0xbdd7edbf	-0.10543393
58	0xbd9f4db6	-0.07778494
59	0xbd15a5ba	-0.036535002
60	0xbdb22ca9	-0.086999245
61	0xbde65737	-0.11247104
62	0xbdcf74f0	-0.10129726
63	0xbd0a8795	-0.033820707
64	0x3bc74d85	0.006082239
65	0xbd0bbcac	-0.03411548
66	0xbd46452f	-0.048405822
67	0xbdba0c6f	-0.09084403
68	0xbda30a64	-0.07960966
69	0xbdce7041	-0.100800045
70	0xbd2eb7ae	-0.04265564
71	0xbd9e9eed	-0.077451564
72	0xbdd80e83	-0.10549643
73	0xbcf7eb79	-0.03026365
74	0xbe02de72	-0.12780169
75	0x3c7386ae	0.014863653
76	0xbdecbe9d	-0.11559794
77	0x3e6ab96c	0.22922295
78	0xbe027aa9	-0.12742104
79	0xbd66faaa	-0.056391396
80	0xbd53cb1e	-0.05170738
81	0xbd52abcb	-0.051433366
82	0xbd3cc989	-0.046090636
83	0x3f6b5404	0.9192507
84	0xbd80fd9e	-0.06298374
85	0xbd2737e1	-0.040824775
86	0xbd7bcc81	-0.061474327
87	0xbd3f247b	-0.04666565
88	0xbd1e3e51	-0.03863365
89	0xbd8c0d0f	-0.06838428
90	0xbdc1ae8f	-0.094571225
91	0xbdf50a96	-0.1196491
92	0xbdeeced2	-0.116605416
93	0x3ecec837	0.40387127
94	0x3b026688	0.001989754
95	0x3f896095	1.07326
96	0x3f2587b8	0.64660215
97	0x3eeff4fa	0.4686659
98	0xbdbd6ee4	-0.09249666
99	0xbd6e40cb	-0.05816726
100	0xbe9ade96	-0.30247945
101	0xbc05d5a2	-0.00816861
102	0xbd9982ed	-0.07495675
103	0xbca34482	-0.019930128
104	0xba9bd4e0	-0.0011889003
105	0xbd8d218c	-0.06891164
106	0xbd85bb69	-0.06529886
107	0xbd195637	-0.037435737
108	0xbd98ff68	-0.0747059
109	0xbc88e340	-0.016709924
110	0xbe052d9c	-0.1300568
111	0xbdba5f33	-0.09100189
112	0xbd161ef5	-0.036650617
113	0xbe0f7bdd	-0.14012094
114	0xbd8c22d8	-0.068425834
115	0xbd64553e	-0.055745356
116	0xbd889f12	-0.06670965
117	0xbd433688	-0.047659427
118	0x3bc97324	0.006147759
119	0xbdd45a67	-0.103688054
120	0xbd48c5c4	-0.04901673
121	0xbd8ec782	-0.06971647
122	0xbcdbc5ad	-0.026827658
123	0xbdb877bd	-0.09007213
124	0xbc9b15b1	-0.018931242
125	0xbd534baa	-0.05158583
126	0xbdb86a65	-0.09004668
127	0xbd7fc8a7	-0.062447216
128	0xbdcb1878	-0.099167764
129	0xbc68c20c	-0.014206421
130	0xbcffd588	-0.03122975
131	0xbdc1625a	-0.09442587
132	0xbd8e88e6	-0.06959705
133	0xbd75e492	-0.060032435
134	0xbdd636b2	-0.10459651
135	0xbd4f4834	-0.050605968
136	0xbe10c0c1	-0.1413603
137	0xbdd077cb	-0.10179099
138	0xbd98b81d	-0.07456992
139	0xbd857d9c	-0.06518099
140	0xbca36641	-0.01994622
141	0xbd3bddba	-0.04586575
142	0xbc927e1a	-0.017882396
143	0xbd957761	-0.0729816
144	0xbc2e80a5	-0.010650788
145	0xbd616996	-0.055032335
146	0xbd60f36a	-0.054919638
147	0xbd7852fb	-0.06062601
148	0xbb432214	-0.002977495
149	0xbdad2c63	-0.08455732
150	0xbd150bd8	-0.03638825
151	0xbd53bdb4	-0.051694587
152	0xbca21392	-0.019784722
153	0xbd79cfdd	-0.06098925
154	0xbd24832a	-0.04016415
155	0xbda31ee4	-0.07964876
156	0xbdcc79a5	-0.09984139
157	0xbd39b9f5	-0.045343358
158	0xbd5a8a45	-0.05335452
159	0xbd0889ba	-0.03333447
160	0x38999ac8	7.324439e-05
161	0xbcd62deb	-0.026144942
162	0xbd9e711b	-0.07736417
163	0xbb8f4aa1	-0.00437291
164	0xbde44b57	-0.111471824
165	0xbd011c2f	-0.03152102
166	0xbd5b08a8	-0.053475052
167	0xbd5fee9e	-0.054670922
168	0xbd71a54c	-0.05899553
169	0xbde157fb	-0.11003109
170	0xbd877f1a	-0.066160396
171	0xbc42b458	-0.011883818
172	0xbdcd2a7b	-0.10017868
173	0xbd961128	-0.07327491
174	0xbcf617fc	-0.030040734
175	0xbda36fd3	-0.07980313
176	0xbaf35aa6	-0.0018566444
177	0xbd5d8f7b	-0.05409191
178	0xbdb05294	-0.086095005
179	0xbdae357d	-0.08506296
180	0x3edd162d	0.4318098
181	0xbd860329	-0.065435715
182	0xbe0af3c6	-0.13569555
183	0xbddb53a2	-0.10709311
184	0xbe0c9a94	-0.13730842
185	0xbf434d07	-0.7628941
186	0xbcdbd70a	-0.026835937
187	0xbdd32da2	-0.10311438
188	0xbdf563fa	-0.1198196
189	0xbd321a20	-0.043481946
190	0x3c539b56	0.012915453
191	0xbda79644	-0.08182958
192	0xbdedd59c	-0.116130084
193	0xbde921a0	-0.113833666
194	0xbde85838	-0.113449514
195	0xbd7102a9	-0.058840428
196	0xbdde3960	-0.10850787
197	0xbdc50f60	-0.09622073
198	0xbcc370d0	-0.023857504
199	0xbd468c9f	-0.04847395
200	0xbcbee36d	-0.023301804
201	0xbbf60ca4	-0.007508831
202	0xbdc32d4a	-0.095301226
203	0xbdf39be7	-0.118949704
204	0xbdd2cf8a	-0.10293491
205	0xbcbf8b4b	-0.02338185
206	0xbd9fcf71	-0.07803238
207	0xbd39a864	-0.045326605
208	0xbda392b8	-0.07986969
209	0xbdbf5fb7	-0.09344428
210	0xbd3f760c	-0.046743438
211	0xbc200013	-0.009765643
212	0x3cb2f95a	0.021847416
213	0xbda13fcf	-0.07873499
214	0xbd08cc0b	-0.033397716
215	0xbdbd31f5	-0.09238044
216	0xbd94bcec	-0.072625965
217	0xbd80943d	-0.06278274
218	0xbd9c316c	-0.07626614
219	0xbd40501c	-0.0469514
220	0xbd9168b5	-0.071000494
221	0xbcc6c1c8	-0.024262324
222	0xbd7a2c61	-0.06107748
223	0xbd575ea8	-0.052580506
224	0xbddda7e6	-0.1082304
225	0xbd77b022	-0.060470708
226	0xbded1ff1	-0.11578358
227	0x3f134809	0.5753179
228	0x3b8435b0	0.0040347204
229	0xbd0f152a	-0.034932293
230	0xbdb07a19	-0.08617038
231	0xbd89ce5a	-0.067288116
232	0xbe09efca	-0.13470379
233	0xbb4d8500	-0.0031359792
234	0x3b374e3a	0.002797021
235	0xbd14fbcb	-0.03637294
236	0xbd4f6cc3	-0.050640833
237	0xbd77e915	-0.06052502
238	0xbda6f332	-0.081518546
239	0xbd07a16e	-0.033112936
240	0xbd9ddc71	-0.077080615
241	0xbdf64da3	-0.12026527
242	0xbf06df99	-0.5268493
243	0xbe000410	-0.1250155
244	0xbdff995b	-0.12480422
245	0xbdd29029	-0.102814026
246	0xbd853ff6	-0.0650634
247	0xbdb44e15	-0.088039555
248	0xbda9cf69	-0.082915135
249	0xbd20e8d0	-0.039284527
250	0xbd25200d	-0.04031377
251	0xbde56196	-0.11200254
252	0xbcb13ff6	-0.021636944
253	0xbd7c4a4c	-0.061594293
254	0xbca5fd11	-0.020262273
255	0xbd9144b1	-0.0709318

fc3.weight f4 [1, 300]
0	0x3bf8fe63	0.0075986846
1	0x3cda6aa5	0.02666218
2	0x3cb060a5	0.021530459
3	0x3ce18876	0.02753089
4	0x3c8b4e06	0.017004978
5	0x3d5d58fb	0.054039937
6	0x3b8b95a9	0.0042597842
7	0xbc9ccd45	-0.019140849
8	0x3ca7dc86	0.020490896
9	0x3ce056b4	0.027385093
10	0x3b4e76e8	0.003150398
11	0x3c8cf65f	0.017207323
12	0xba84b74c	-0.0010125428
13	0x3b1d4809	0.0023999235
14	0xbcb106d6	-0.021609705
15	0xbc24bffe	-0.01005554
16	0xba26732d	-0.000634956
17	0xbc982338	-0.018571481
18	0x3c785a0e	0.015158189
19	0xbc9c08b4	-0.019047119
20	0x3cb78e30	0.022406667
21	0x3b71f082	0.0036917035
22	0xbcd19989	-0.025585907
23	0xbc1f0032	-0.009704636
24	0x3cab2976	0.020893794
25	0x3c8adc48	0.016950741
26	0x3a2924ea	0.0006452339
27	0x3c884f6b	0.016639432
28	0xbc90bb6a	-0.017667491
29	0xbc26d5af	-0.010182782
30	0xbc876407	-0.016527189
31	0x3c6715d1	0.0141043225
32	0x3ac71844	0.0015189727
33	0x3c22da15	0.00993969
34	0x3c6e2889	0.0145360315
35	0xbc9c341d	-0.019067818
36	0xbcc71179	-0.024300324
37	0xbce6a875	-0.028156498
38	0xbbccdd16	-0.0062519414
39	0x3bc5e846	0.006039652
40	0xbc58f043	-0.013240877
41	0xbbf08341	-0.0073398654
42	0xbaf29a80	-0.0018509179
43	0x3cdb879e	0.026798066
44	0x3c1135db	0.008862938
45	0x363ce74d	2.8148818e-06
46	0x3ae61ba8	0.001755585
47	0xbcb490d9	-0.022041725
48	0x3ceefcaa	0.029173214
49	0x3c14cafe	0.0090816
50	0xbc276237	-0.010216287
51	0xbcbb4ebe	-0.022864696
52	0x3c9883fc	0.018617623
53	0x3b56ef71	0.0032796527
54	0x3caf3161	0.02138585
55	0xba98fc35	-0.0011671843
56	0x37c2da9f	2.3228406e-05
57	0x3c9f9abc	0.019482963
58	0xbd147b0e	-0.036250167
59	0xbb9eada9	-0.0048424792
60	0x3cd3209f	0.02577239
61	0x3b7ede2c	0.003888975
62	0x3ccdf68d	0.025141979
63	0x3cede633	0.029040432
64	0xbcaa23ab	-0.020768961
65	0xbb10ec9b	-0.0022113684
66	0x3c534838	0.012895636
67	0x3c2be124	0.010490689
68	0x3b89155d	0.004183455
69	0xbbda524e	-0.0066626435
70	0xbbe67a5e	-0.0070336303
71	0x3bebcc36	0.0071959747
72	0xbcc12d1c	-0.02358108
73	0x3cca5885	0.024700413
74	0xbc98e98f	-0.018666057
75	0xbade3159	-0.0016951963
76	0xbc3f8b58	-0.011690937
77	0x3cf6ef88	0.030143514
78	0xbbbc96ee	-0.005755297
79	0x3c95724d	0.01824298
80	0xbc3ad056	-0.01140221
81	0x3a779942	0.00094451394
82	0x39f2307a	0.00046193955
83	0x3c80ebb9	0.015737401
84	0x3a97d770	0.0011584591
85	0xbb72d579	-0.003705351
86	0x3c0e9771	0.008703099
87	0xbc188000	-0.009307861
88	0xbc916bec	-0.017751656
89	0xbc060b93	-0.00818147
90	0xbc099825	-0.0083980905
91	0xbbf36469	-0.0074277413
92	0x3cdda0b8	0.027054176
93	0x3cc8acf9	0.024496542
94	0x3b39e654	0.0028366046
95	0x3d97a0ae	0.07403694
96	0x3d0452d3	0.03230555
97	0x3c8c94f6	0.017160874
98	0x3c27bb34	0.010237504
99	0xbcd4b139	-0.025963413
100	0xbbf9ee84	-0.00762731
101	0x39c08210	0.00036717998
102	0xbac1d3d6	-0.0014787863
103	0x3c09be51	0.008407191
104	0x3b573eb4	0.003284377
105	0x38d3bedf	0.000100968165
106	0xbacf33e2	-0.0015808309
107	0x3c072e00	0.008250713
108	0xbc9d9f5f	-0.019241033
109	0xbc09a599	-0.008401298
110	0x3c5ff812	0.013669984
111	0xbcefa3ad	-0.029252851
112	0xbc886df4	-0.016653992
113	0xbc7161cf	-0.014732792
114	0x3c8a3d83	0.016875034
115	0x3d066af8	0.032816857
116	0xbc84f778	-0.016231284
117	0x3c9c348c	0.019068025
118	0x3cd38614	0.02582077
119	0x3c3d130c	0.011540186
120	0xbbb33b76	-0.005469735
121	0x3c3aa958	0.011392914
122	0xbc999f79	-0.0187528
123	0xbbb364a7	-0.005474645
124	0xbb9f32bb	-0.0048583425
125	0xbbe05dd3	-0.006847122
126	0x3a6fbc00	0.00091451406
127	0xbcdb7242	-0.02678788
128	0x3cea04df	0.028566776
129	0xbb8c3c54	-0.0042796526
130	0x3c032f2d	0.008006853
131	0xbb5cd434	-0.003369582
132	0x3c79d531	0.015248583
133	0xbc30c227	-0.010788477
134	0x3c17f222	0.009274038
135	0xbc9e5ced	-0.01933142
136	0x3c057e4b	0.008147786
137	0xbc22b27b	-0.009930248
138	0x3bae61db	0.005321724
139	0xbbffb694	-0.0078037474
140	0xbb900c64	-0.0043960083
141	0xbc4cb9fe	-0.012495516
142	0xbd09f153	-0.03367741
143	0xbbc86da0	-0.006116584
144	0xbc5d1628	-0.013494052
145	0xbc8d106a	-0.01721974
146	0xbc87a1fc	-0.016556732
147	0x3c063b50	0.008192852
148	0xbace4b3d	-0.0015738975
149	0xbcb92600	-0.022601128
150	0xbc021b5f	-0.007941096
151	0xbc7d3c51	-0.015456275
152	0xbb1f2bdc	-0.0024287617
153	0x3cbb0405	0.022829065
154	0x3cebe288	0.028794542
155	0xbad865f6	-0.0016509879
156	0xbbbeda4b	-0.0058243624
157	0x399a6912	0.00029451452
158	0xbc2cb5b6	-0.01054137
159	0xbc934b03	-0.017980104
160	0xbb16d33b	-0.0023014087
161	0xbc0a3a4c	-0.008436751
162	0x3cd50d82	0.026007418
163	0xbb725191	-0.0036974887
164	0xbb4ba126	-0.0031071394
165	0x3cadbd74	0.021208502
166	0x3c83882d	0.016056145
167	0x3cd61b2b	0.026136002
168	0xbcaae323	-0.02086026
169	0xbc22087a	-0.009889716
170	0xbc3d4baa	-0.011553684
171	0xbb43145f	-0.002976678
172	0xbc0c5fd9	-0.008567774
173	0xbc88389d	-0.016628558
174	0x3b14060a	0.0022586607
175	0xbc5d30d4	-0.013500411
176	0xbc80befc	-0.015716068
177	0xb9b0b0d9	-0.00033701098
178	0x3b80d443	0.0039315536
179	0xbcdee78a	-0.027210016
180	0x3d0b6796	0.034034334
181	0x3bbf86c4	0.0058449227
182	0xb9d5b750	-0.00040763104
183	0xbb91ee52	-0.004453459
184	0xbc337076	-0.010952106
185	0xbc903005	-0.017601022
186	0xbc27faf1	-0.0102527
187	0xbc75492f	-0.014971062
188	0x3c0e9bbd	0.008704123
189	0x3c8790c6	0.016548526
190	0xbcd57428	-0.026056364
191	0xbca8a67d	-0.0205872
192	0xbb993275	-0.0046752044
193	0x3d0b5d1e	0.03402435
194	0xbc509514	-0.0127308555
195	0x3d153b81	0.0364337
196	0xbb731292	-0.0037089926
197	0x3b12a040	0.0022373348
198	0xbc0cf9fb	-0.008604522
199	0x3a98d158	0.0011659069
200	0xbc806618	-0.015673682
201	0x3cbc4f6c	0.02298709
202	0x3b879d83	0.00413865
203	0x3c74cdae	0.014941616
204	0x3ca2c43d	0.019868964
205	0x3c9680b0	0.01837191
206	0x3c5b9399	0.013401889
207	0xbcfc00a9	-0.030762034
208	0x3cdfbbb7	0.02731119
209	0x3cdca8f8	0.02693604
210	0xbb73d84b	-0.0037207778
211	0x3b24f4e8	0.002517039
212	0x3b065290	0.0020495988
213	0xbbc6de2f	-0.006068967
214	0x3c2afd37	0.010436348
215	0xbc4776fc	-0.012174364
216	0xbc80662a	-0.015673716
217	0x3cc15b2a	0.02360304
218	0xb95d533d	-0.00021107211
219	0x3c261910	0.010137811
220	0xbb381b3f	-0.0028092412
221	0x3c2be1d9	0.010490858
222	0xbc960de4	-0.01831717
223	0x3c2b39a5	0.010450755
224	0xbbe88a43	-0.00709656
225	0x3b9e2bb5	0.0048269876
226	0xbc245105	-0.010029082
227	0x3b591b1c	0.003312773
228	0xbd257229	-0.040392075
229	0xbcbda3cf	-0.0231494
230	0xbca3e79c	-0.0200079
231	0xbcc840ae	-0.024444904
232	0xbc6a0206	-0.014282709
233	0xbbaefe21	-0.005340353
234	0xbcd730ed	-0.026268447
235	0x3c628da5	0.013827716
236	0xbc53f46c	-0.012936693
237	0x3ccd6d0f	0.025076417
238	0x3c76c3a3	0.015061292
239	0xbc01899c	-0.007906344
240	0x3aa1c568	0.0012342157
241	0xbc498ece	-0.012302114
242	0xbc341254	-0.010990698
243	0xbba4b9fb	-0.0050270534
244	0x3c5da552	0.013528185
245	0x3c9cbc51	0.019132765
246	0x3d0fea8b	0.035135787
247	0xbc034c74	-0.008013833
248	0x3c2c2be3	0.01050851
249	0xbc138317	-0.009003422
250	0xbcfa8f09	-0.030585783
251	0xbcd709c1	-0.026249768
252	0x3c595b6c	0.013266426
253	0x3c8b65b1	0.017016264
254	0x3ce491ef	0.027901618
255	0x3bd35bfc	0.0064501744
